assign1/20180183_resBottleneck_best.pt (torch, 562517 bytes, 242 tensors)

block1.0.conv1.weight f4 [8, 16, 1, 1]
00000000: aded b93e bd43 213e 932d 933e c962 78bd
00000010: 6bd7 663e 90b1 a43e 3044 f63d fb7b febb
00000020: fe42 833f c95c 003e 21cc 173e f06e dabd
00000030: fbb7 36be a631 c6bd a010 103c 6922 8c3e
00000040: d6aa cc3d 4565 593c f689 e13d ae33 123e
00000050: e67f 393d 5b94 e13c 0779 90bd 8874 e73c
00000060: 8e31 06be 881d 0a3f 3541 953e a3dd 883e
00000070: c317 eabc 5636 b43e 976b b73b 4a58 033e
00000080: 9a82 ecbc 017d 583c 3959 293d 2441 04bd
00000090: f00e c93d 199b fc3a 8def 703e 2212 8f3d
000000a0: 46c5 18be bd58 9abd 3c04 883d 4fe2 0a3e
000000b0: d60d 233e cf77 edbc 9596 1b3c 8f5b fcbd
000000c0: 711c ed3c 61af cd3d 8f23 183e ea44 71be
000000d0: 7d7e bdbe 4c5a af3d 2ead 253c c707 8fbe
000000e0: 09a2 81be c31f 2ebf 22f9 93bf ff46 d93d
000000f0: e86b 5b3e 27a3 b9be 7595 c4bc e69f 8cbe
00000100: 4dd4 21be fa81 773d 3c51 aabe 57e1 f0bd
00000110: c2b1 243f 4e1f 73be c408 01be bafc 8f3e
00000120: 7bc8 26bf 43b5 ee3c 3b26 6b3f 388c fb3d
00000130: e8b7 253d 2f95 883d 2a5e f03b bbce 003c
00000140: a491 7e3e 4011 813d 3f14 92be 56c6 89be
00000150: 6991 89be 45eb 173e 727a 0bbe 1a8b 3c3e
00000160: 0971 543f 19b5 97bd ba22 b23c f7c4 b0be
00000170: 81fa 41be 1d10 803d ccac 6fbc b9ea 603e
00000180: eb34 983b 1093 a63d b5dd 7bbd 21cf 15bb
00000190: a69b f2bd 896f 113d cb31 af3b cf33 2dbe
000001a0: 478e ab3d f511 083c e620 e63c b238 dcbd
000001b0: 3c35 59bd 97b2 1ebd c390 5abd c5b3 c93c
000001c0: f317 fcbd 5bda 88be 14b8 063b 400b 8b3e
000001d0: 9907 17bf 27d7 aebe eae7 9cbe 4040 923e
000001e0: 6de7 ea3e ef98 9abe 620a 0e3e 6d94 1bbf
000001f0: 141f 0abe a028 163f 3df2 063d 40a5 efbe
0.36314145 0.15748496 0.28745708 -0.060641084 0.22543113 0.3216672 0.120247245 -0.0077662445
1.0254819 0.12535395 0.14823963 -0.10665691 -0.1784362 -0.096774384 0.008793026 0.27370003
0.09993522 0.013268773 0.11012642 0.14277527 0.04528799 0.027536562 -0.07054334 0.028253809
-0.13104841 0.5395131 0.29151312 0.26731595 -0.028575784 0.35197705 0.0055975425 0.12826648
-0.02887087 0.013213397 0.041344855 -0.032288685 0.09817302 0.0019272297 0.23528881 0.069858804
-0.14919004 -0.07536457 0.06641433 0.13562892 0.15923247 -0.028987793 0.009496351 -0.12322151
0.028944226 0.100432165 0.14857315 -0.23561445 -0.37010565 0.08562145 0.01011209 -0.2793562
-0.25318936 -0.68017215 -1.1560404 0.106092446 0.21427882 -0.36257288 -0.023997048 -0.27465743
-0.15803643 0.06042669 -0.33265102 -0.1176173 0.64333737 -0.2374241 -0.12601 0.28122503
-0.6514966 0.029139167 0.9185521 0.12282604 0.04045859 0.066690795 0.007335444 0.007861788
0.24860245 0.06302118 -0.28531072 -0.2690913 -0.26868752 0.14835842 -0.13620928 0.18412438
0.8298498 -0.074075885 0.021745075 -0.34525272 -0.18943216 0.06253073 -0.0146286 0.2196454
0.00464498 0.08133519 -0.061490733 -0.0022859054 -0.11846094 0.03550676 0.005346512 -0.16914295
0.083767466 0.008305063 0.02809186 -0.10753001 -0.053029284 -0.038744535 -0.05336071 0.024621854
-0.123092555 -0.26729092 0.0020556496 0.2715702 -0.5899597 -0.34148523 -0.30645686 0.28564644
0.4587969 -0.30194804 0.13871148 -0.60773355 -0.13488418 0.5865574 0.03294586 -0.46805763

block1.0.bn1.weight f4 [8]
00000000: 71ec 0a3f 6eca 293f 0d11 8c3e 36f7 523f
00000010: 0b2d 103f d6d9 c93e 1606 e93b 8164 1b3f
0.5426703 0.6632451 0.2735676 0.82408464 0.5631873 0.39424008 0.007111321 0.6070023

block1.0.bn1.bias f4 [8]
00000000: bd10 c33d 9231 f0be 6e60 adbe 71fd 603e
00000010: 553a 633f 118d 153f 8da8 c5bc e00e a13d
0.09524677 -0.4691282 -0.33862633 0.2197168 0.8876088 0.58418375 -0.024128223 0.07864165

block1.0.bn1.running_mean f4 [8]
00000000: ca19 6040 44ec 1540 c67c 263f 2f99 7bc0
00000010: 3573 13bf 2a6d c93e 0924 c7bd 0197 07bf
3.501574 2.3425455 0.6503414 -3.9312246 -0.57597667 0.39341098 -0.0972367 -0.5296479

block1.0.bn1.running_var f4 [8]
00000000: e162 6440 8961 d63f 6763 cd3e fcdd b540
00000010: 58c4 bc40 db80 3340 944c 633e 60a9 f93f
3.568535 1.6748515 0.401149 5.6833477 5.8989677 2.8047397 0.22197181 1.9504814

block1.0.conv2.weight f4 [8, 8, 3, 3]
00000000: 4ce4 933e cfc4 77be ccd8 b13d 4b94 de3e
00000010: d2b6 12bf f8e0 ffbd 2314 a63e 9491 463e
00000020: 743f 723e ba75 f13c 489d 9d3d b90b 4a3d
00000030: a3ff 63bc 17b5 ac3c 0adf c43d 74a9 4c3e
00000040: acfd 05be 0588 c6bc 3d87 f2bd 0f6b 7a3c
00000050: 036d 8d3c 003e f03c 6293 d2bd 2b20 41bc
00000060: cdf8 4f3d 9942 e4bc c18b 12bd 06ee 01be
00000070: 291c eb3d 47f2 eebd 3cae 30be 34b7 7d3e
00000080: d370 213e d478 06be 983c 6b3e e190 01be
00000090: 56c9 9bbe 2a15 e93d fb8c 26bd 7dff 24bf
000000a0: 0e53 5c3f 7c59 073e 5cc7 a8be 63a6 c9be
000000b0: a118 c7be 7b7b 783e a2b9 13be 1e62 7f3e
000000c0: db75 e53e f02a 98bf c8f1 24be 1b84 9e3e
000000d0: 6b8e ce3d 7109 f03d de01 f83c eaa4 dabc
000000e0: 3dfd c4bc b72f b93c dbc3 5a3c c88d fbbb
000000f0: 20d3 22bb 13c7 a5bc 12d8 e2bc f5cb 2d3d
00000100: 2d01 abbd a0d4 8a3e 8cff 2abe dd58 75bf
00000110: ccf9 973c 12bb 223e 0e01 e8bd 2a9e 013d
00000120: 4776 6ebd 1125 2d3c 47ec 57bd becd 62bd
00000130: aa77 803c 7b6e bfbd 9328 46bd 437c 1abc
00000140: 8f58 1fbd fe92 433d 7e7a a13c faf5 e63c
00000150: 8971 213c 1a9e 183d bbb2 70bc d69e 3c3d
00000160: 7b7c 8e3d a4dc 213d ca34 d6bc cf70 35bd
00000170: fed5 3abd 2345 e0bd dd31 99bd 9160 3e3d
00000180: 3d4e debc aefd 50bb 626a 8fba 3b60 8abc
00000190: a339 2fbd 66b0 323b 39f5 b039 46fe 88bc
000001a0: f943 37bb c4a0 92bc 75d4 07bd 9135 0ebc
000001b0: fca9 a4bd de81 8fbc 4503 98bd 21bc b0bd
000001c0: 87ac 4cbd 32f2 75bc 0014 a73d e59a 02bd
000001d0: a984 4ebd eb83 fe3b 1d32 1f3b cd63 75bc
000001e0: 60f9 2b3c 6d33 e3bc 40ab 88bd 3686 34bc
000001f0: 414b fabc e591 92bd aaa9 87bd 918e dc3b
00000200: af18 14bd bcf2 4bbd f714 063d 6979 183b
00000210: b617 cebc a2b9 093c c42f 083b 0e3f 9dbc
00000220: f2ae 783d 01d3 d43c 8967 093d 1795 523d
00000230: a976 573c b7f9 8bbc b0b2 1b3c 7655 043d
00000240: 407a e1be fe46 b33e 30fd a43e d5af febe
00000250: d493 4b3e 5735 d63e 5ada b6be 397f 8dbe
00000260: d9c3 0dbe c3ca 46be 9952 3b3e 43e6 743e
00000270: 2603 b03c ce1d 1f3f 1f85 a43e 57fd 853d
00000280: be5c 0f3e 6800 a03e 628e b5bd e735 4abd
00000290: ed85 a8bd f145 663d 9d82 83bc 5aa2 fdbd
000002a0: b064 b33d 09a5 0dbd 3eef 47be eacc 063d
000002b0: 773d c9be 70b5 23bd 0ac5 803d cc1f 0c3e
000002c0: 47e9 933d 8d2a e63c 05d6 373e 6ba2 0abe
000002d0: f2bc 65bd 59e6 47be c5e2 c0be 83c2 7c3e
000002e0: 5bbb cc3e 82cf ab3c fa45 b9bd 940d b3bd
000002f0: c5f8 673d 332d f13d 3813 4f3e 162a 083f
00000300: 2f14 a6bd 02b1 5cbe 925a 4b3e c90c 31be
00000310: 42b7 4fbe aef4 f93c 0033 6c3d 7e0f a63c
00000320: 7180 b63d 3185 943c 44ef 56bb b751 b63d
00000330: 3aaa bcbb 9703 9a3c 4f9b 073c 5610 76bb
00000340: dd38 9abd 538d a5be 0de6 473d 427c 35be
00000350: 3b9b e1be 42ba 4e3e 4748 883e b7fb fb3d
00000360: b5f4 21bd 6764 2bbd 0692 cfbc 2d4b 15bd
00000370: bce9 8f3c 1d63 0d3c f177 6ebc fb72 503c
00000380: f3c7 b63c 60d5 d3bd ea32 89bd c933 9cbd
00000390: 0eda 54bd dd68 603b 64ff 9abc c313 4cbd
000003a0: 0cad c6bc 2941 4abd b437 1ebd 593c 95bc
000003b0: 59c5 cabb 4b43 05bd 62fa 9bbd ac8c 3cbd
000003c0: 92ea 123c 8a44 c6bc e38d 06bd eefc 263c
000003d0: f28d de3c 90c5 813d b1c2 c6bc 4658 bebc
000003e0: 9829 883d 89f8 42bd fea8 e03b 4ba2 543d
000003f0: 60d8 c73c 3db2 51bc 8df3 983c 0f6e 87bb
0.28885114 -0.2419617 0.08683929 0.43472514 -0.5731021 -0.12494081 0.32437238 0.19391471
0.23657018 0.029475082 0.07696015 0.049327586 -0.013915929 0.021082444 0.09612854 0.19986516
-0.1308505 -0.024234781 -0.11842201 0.015284314 0.017263895 0.029326439 -0.10282017 -0.011787455
0.050774384 -0.027863787 -0.03577781 -0.12688455 0.114799805 -0.116673045 -0.17253965 0.24776918
0.15765695 -0.1313203 0.22972333 -0.12652923 -0.30427045 0.1138099 -0.040661793 -0.64452344
0.8606423 0.1321773 -0.329646 -0.39384755 -0.38885978 0.24265854 -0.14426282 0.24939772
0.4481648 -1.1888103 -0.16107857 0.30960163 0.10085758 0.11720551 0.030274328 -0.026689965
-0.024046535 0.02260576 0.01335236 -0.0076768138 -0.0024845079 -0.020236528 -0.027690921 0.042430837
-0.08349834 0.27115345 -0.16699046 -0.9583872 0.01855173 0.15891674 -0.11328326 0.031644978
-0.058218267 0.010567919 -0.052715566 -0.055371992 0.01568206 -0.09347244 -0.04837854 -0.00942904
-0.038902815 0.047747605 0.01971173 0.028193463 0.009853729 0.037260152 -0.01469105 0.046049915
0.069573365 0.03951706 -0.026148219 -0.044297036 -0.045614235 -0.10950687 -0.07480214 0.04647881
-0.027136916 -0.0031889486 -0.0010941739 -0.01689159 -0.042779576 0.0027265786 0.0003375204 -0.01672281
-0.00279641 -0.017898925 -0.0331616 -0.008679763 -0.080402344 -0.01751798 -0.074224986 -0.08629633
-0.049969222 -0.015011357 0.081581116 -0.031886 -0.050419483 0.0077671907 0.0024291344 -0.014977408
0.010496467 -0.027734483 -0.06673288 -0.0110183265 -0.030553462 -0.071567334 -0.06624158 0.0067308624
-0.036156353 -0.049792036 0.032734837 0.0023265725 -0.02515779 0.008406075 0.0020780424 -0.019195106
0.060713716 0.02597952 0.033546004 0.051411714 0.013150849 -0.017086847 0.009503052 0.032308064
-0.44038582 0.350151 0.32224417 -0.49743524 0.1988061 0.4183757 -0.35713464 -0.27636126
-0.13844241 -0.19413285 0.18293227 0.23915963 0.021485876 0.62154853 0.32132813 0.06542461
0.14000222 0.3125031 -0.08865048 -0.04936781 -0.08228669 0.056219045 -0.016053492 -0.12384482
0.08759439 -0.034581218 -0.19524857 0.032910265 -0.39304706 -0.039967954 0.06287582 0.13684005
0.072222285 0.028096462 0.17952736 -0.1353852 -0.056088395 -0.19521464 -0.3767301 0.24683575
0.3998669 0.02097297 -0.0904655 -0.08742824 0.05663373 0.11776199 0.20222175 0.5318922
-0.081093185 -0.21551898 0.19858769 -0.17290033 -0.20284751 0.03051218 0.057665825 0.02027106
0.08911217 0.018129917 -0.0032796422 0.089023046 -0.0057575973 0.01880054 0.008276775 -0.0037546358
-0.07530377 -0.32334384 0.048803378 -0.17723182 -0.44063744 0.20188239 0.26617643 0.1230387
-0.03954001 -0.041843798 -0.025338184 -0.036448646 0.017567508 0.0086295875 -0.014554963 0.012722726
0.02231214 -0.103434324 -0.06699164 -0.07627065 -0.051965766 0.003424219 -0.018920608 -0.049823534
-0.024252437 -0.049378548 -0.03862734 -0.018217253 -0.0061880765 -0.03253488 -0.07616116 -0.046032593
0.008967059 -0.024202604 -0.032850157 0.010192139 0.027167294 0.0633651 -0.024262758 -0.023235451
0.066485584 -0.047600303 0.006856083 0.051912587 0.024395168 -0.012798843 0.018670822 -0.004132993

block1.0.bn2.weight f4 [8]
00000000: ae0e 243f de57 7bbb e8ab 4a3f c08a 063c
00000010: 0822 173f f745 44ba d1aa 013f b59d 2bbc
0.640849 -0.0038351933 0.7916856 0.0082117915 0.590363 -0.0007487232 0.5065127 -0.010474612

block1.0.bn2.bias f4 [8]
00000000: f058 e93e 8097 bfbd bc85 dc3d 427a 1bbd
00000010: 0c36 073f 1ae4 1dbd b542 12bd a3d7 42bd
0.45575666 -0.09355068 0.10767695 -0.03795839 0.52816844 -0.038547613 -0.035708148 -0.04756893

block1.0.bn2.running_mean f4 [8]
00000000: 2622 3fbf 57ad e4be 73ab 3b3e 23ad 4b3d
00000010: 4bd6 35bf dcbf 8ebe b315 1bbf 5308 883e
-0.7466148 -0.44663498 0.18327121 0.049725663 -0.7103011 -0.27880752 -0.60579985 0.2656885

block1.0.bn2.running_var f4 [8]
00000000: 45c6 553f 7575 ac3c c0b0 2c3f 578b dc3c
00000010: bd3a 903f 4a84 9b3c 6de9 a33e 5237 133d
0.8350566 0.021052102 0.674572 0.026921911 1.1267926 0.018983979 0.32014027 0.03594143

block1.0.conv3.weight f4 [16, 8, 1, 1]
00000000: 6410 803e 38f2 0a3c 18de 92bc 4e26 593c
00000010: cee3 a43d 8ce0 5b3c a85e 28bd 8c3c 2bbd
00000020: 37d9 f23d 9668 1cbc b774 893e 49de 49ba
00000030: 7239 2d3d ee16 713c 9846 153e b104 2bbd
00000040: 7633 8f3e d562 a9bc cd35 04bf 0aec 1a3d
00000050: 2d09 e33e 2a27 86bc da56 873e ec68 e1bc
00000060: a897 d7bd 29a0 4fbd 4cf0 213f 62cb 303d
00000070: 2a23 2b3e 8996 7a3c 975b 0e3b e1b0 293c
00000080: 977e 23be 2621 a33d 1439 2e3e c6bc 8cbc
00000090: f89a 153e f597 023d e427 d13d 533b 0bbd
000000a0: d7e7 c2be c8f2 3dbd 4bcf 073f 279e 2abd
000000b0: debd 3bbe 4af4 32bc 6f2a fa3d 6232 00bd
000000c0: 197e be3d 434f a4bb fb3b c43e 73cc 8f3d
000000d0: 22bd 99bc 7ede 34bb 08b8 ecbe 411f 3ebd
000000e0: 3d02 f03e 4902 67bd 5a87 b73d d7b8 5e3d
000000f0: 8c84 77bd 73a4 c83c 1d09 49be ccec 49bc
00000100: f228 4cbf 9d7a 7ebd e809 a4be 6c5d 18bd
00000110: 383c 823e fe5d 253d aa6f da3e 6bfb 9fbc
00000120: 9311 a6be 23ee 9cbd 0d7c dabe 59f9 023c
00000130: abd3 333d a914 05bb 7ca5 0dbe bdec 973c
00000140: f31c 6bbe 97f4 fcbb 1277 83be 865b 823d
00000150: 5666 3cbe 638b 91ba d468 0c3e 9b46 febc
00000160: cb05 f23e 7508 30bd f356 92be b65a b1bd
00000170: f57d b5bd 8726 153c acc0 013e 7662 2e3d
00000180: c79c c63e 363d 483c 05bc 79bd 0506 e1bc
00000190: 6454 d2bd 39b1 4ebd ead6 7e3e b4fe 07bc
000001a0: 2be0 f6bd 2572 b03c e6ff 093e 3641 1c3d
000001b0: 6232 6ebf 328c 863d 6f10 f8bd 4bf7 dc3c
000001c0: b172 82bd e680 99bc ec68 873d e24d b939
000001d0: 99fc 013b ff03 743c 4254 a63d bb16 a2ba
000001e0: a924 a13b cd29 383d ae2b 83be 8d0d 43bb
000001f0: 5cf3 243f 2cbf ee3c 75e1 35be 8b59 07bd
0.25012505 0.008480601 -0.017928168 0.013253761 0.08051263 0.013420235 -0.041105896 -0.04180579
0.11857837 -0.00954642 0.2684686 -0.00077006646 0.042291112 0.0147149395 0.1457771 -0.04175252
0.2796895 -0.02067701 -0.51644593 0.03782276 0.44342938 -0.016376097 0.2643345 -0.027515851
-0.10526973 -0.05068985 0.6325729 0.04316271 0.16712633 0.015294679 0.0021722072 0.010357113
-0.15966259 0.07965307 0.17013961 -0.017179858 0.14609897 0.0318832 0.10212687 -0.033992123
-0.38067505 -0.046374112 0.5305068 -0.041654732 -0.18334147 -0.010922501 0.12215125 -0.03129805
0.09301395 -0.0050143315 0.3832701 0.070214175 -0.018766943 -0.0027598436 -0.46234155 -0.046416525
0.46876708 -0.056398664 0.08961363 0.054375496 -0.06042914 0.024492478 -0.19632383 -0.012324523
-0.7974998 -0.062128652 -0.32038808 -0.03719847 0.25436568 0.04037284 0.42663318 -0.019529065
-0.32435283 -0.076626085 -0.42672768 0.007994019 0.043903034 -0.0020306504 -0.13832659 0.018545503
-0.22960262 -0.007719587 -0.2567678 0.06365113 -0.18398413 -0.0011104163 0.13711864 -0.031039527
0.47270045 -0.042976815 -0.28581962 -0.0865988 -0.08861915 0.009103424 0.12671155 0.04257437
0.38791487 0.012221625 -0.060970325 -0.02746869 -0.102700025 -0.05046198 0.2488667 -0.008300472
-0.120544754 0.021538803 0.13476524 0.038148127 -0.9304563 0.06569709 -0.121125095 0.026973387
-0.06369532 -0.018738221 0.06611809 0.00035343977 0.0019834398 0.014893531 0.0812154 -0.0012366393
0.0049177003 0.04496174 -0.25619262 -0.0029762716 0.64433837 0.029143892 -0.17761786 -0.03304438

block1.0.bn3.weight f4 [16]
00000000: 5ff3 26be e822 31bd 734d 3b3e dfd5 92be
00000010: 029e 9b3e 2a0a 4a3f 29d4 44bb e353 a83e
00000020: d458 4f3f 6f17 433e 9e15 6e3e b3b2 df3e
00000030: d5fc b83d 6ae8 f83e dcf4 703a 5104 213f
-0.16303776 -0.04324618 0.18291263 -0.28678796 0.30393988 0.7892176 -0.0030033684 0.328765
0.80994916 0.19051908 0.23250434 0.43691024 0.09032599 0.48614818 0.00091917603 0.6289721

block1.0.bn3.bias f4 [16]
00000000: 36d5 8cbe 4d65 ac3c 6ad4 023f 0a29 8a3d
00000010: 83ad 14bf ed8b 593c 4679 043e 02b5 00bf
00000020: c2d4 c03c a734 143e fb24 4fbe c420 66be
00000030: 81f8 ca3d 567e 583e 4987 42bc 57d9 143e
-0.27506417 0.021044398 0.5110537 0.06746109 -0.5807726 0.01327799 0.12936887 -0.50276196
0.02353895 0.1447321 -0.2022895 -0.22473437 0.099106796 0.21141943 -0.011873075 0.14536034

block1.0.bn3.running_mean f4 [16]
00000000: 8def 2b3e 3542 4d3e 23ee 983e 630b 843e
00000010: 7a7d a63d 97c5 fabd 157b 9c3d 6819 523e
00000020: 9c7c 96be 3843 9bbe 900c 96be e8a6 073e
00000030: 93da 2a3e cf82 1cbf 446e 4b3b 98a6 943e
0.167906 0.20044787 0.29869184 0.25789937 0.081294015 -0.122447185 0.076406635 0.20517504
-0.29391944 -0.3032472 -0.2930646 0.13247263 0.16684942 -0.611371 0.0031041065 0.2903335

block1.0.bn3.running_var f4 [16]
00000000: 6eee 8a3c 122c ef3c 63b2 3f3e 8103 073e
00000010: df0e 933c babc 143e 93ca b23d e47d 9f3d
00000020: 146d 9e3e ca40 d53d 1344 263d 6478 a03d
00000030: 064d 283d 16b2 323e 44ce 403b acfb ee3d
0.016959395 0.029195819 0.18720393 0.1318493 0.017951427 0.14525118 0.08730044 0.077876836
0.30942595 0.10412748 0.040592264 0.07835463 0.04108908 0.17450747 0.002941982 0.11669096

block1.1.conv1.weight f4 [8, 16, 1, 1]
00000000: f2f7 b83e ac5d 543d 7c82 1bbd 7d50 35bc
00000010: 4e7a 6e3e 4975 883c be9c fc3f a230 69bd
00000020: d5d1 a1be 453e b4bd 649a 5ebe acb1 b8bc
00000030: 066b 003e db5f 273d e1ad a93c a17a c2bd
00000040: 239a b6bc 9899 473e 115a 883e 699f c93d
00000050: e116 01be b553 a13d 0468 62bc 21fe 24bd
00000060: cc8c b6bd 23c7 98be 4457 633b 9df3 90bd
00000070: 2a4e a6be c94c bd3d e111 b4bc 398c babd
00000080: 1fc4 4a3d a139 f83d e14b e63d 5354 52be
00000090: daca 733d 40de 34be 767d 01bf 226e ae3d
000000a0: fc18 3f3f 3967 8e3c 1e75 26bd b9c6 fa3e
000000b0: c7e8 5fbe 0d2e 85bd 28ae de3c be54 4abe
000000c0: 0bef fe3c 528e 583d d89b bdbd 6ae2 ab3d
000000d0: a85f 2b3d f0db 313e e5cc ab3c 5ae2 86ba
000000e0: 6fa8 3b3e bf54 21be b387 253d 1a36 0a3d
000000f0: 31ca 0f3e b007 813e 3643 733d 76bf 20bd
00000100: 52b7 72bd 18b6 433d 9a76 80be 6417 8e3d
00000110: 6b3f a3bd 055b 073e 7581 18bb 2923 1a3e
00000120: 90d1 febe 1b51 22be b091 b23e 3ec4 8a3c
00000130: 7daf 3bbe f319 62bd 89ee 09bd 655c ea3a
00000140: 019a 8abe 5a39 44be dc04 9f3d abfa 6c3d
00000150: 176e c2be e83b e6bd 316a e3bf 1903 e73d
00000160: 9a06 663e c045 76bd f8a3 b73d 1a72 ff3e
00000170: f82b 66be 572d ec3e f908 df3b 8f21 873d
00000180: cb8e 2e3b 6643 903d fdaf 2bbe 9406 33be
00000190: 213b 4abd ea35 5bbe 62c2 583e 849a 21bc
000001a0: d57b 333e 6f2b 3d3d d996 253e a9f8 2dbd
000001b0: 2d8c 6ebe 086a 803e 01f4 b4bd 6ded ac3d
000001c0: a07d 11be a9df 1cbe 7a8c 99bd 5124 01be
000001d0: a7b5 5cbd 603a 0ebe e108 5dbf e528 d8bc
000001e0: 358b 6bbe b8b3 a73c c486 bfbe 1a0e 053e
000001f0: 665f 933c 9a5e 50be 1eb9 01bd c0f3 573c
0.36126667 0.051847145 -0.037966236 -0.011066553 0.23288843 0.016657488 1.9735334 -0.056931145
-0.31605402 -0.088009395 -0.21738583 -0.022545658 0.12540826 0.0408629 0.020712795 -0.09496046
-0.022290295 0.19492185 0.26631215 0.09844858 -0.12606384 0.07877294 -0.013818745 -0.04028142
-0.089135736 -0.2983943 0.0034689466 -0.070777155 -0.3248151 0.09243161 -0.021981182 -0.091087766
0.049503442 0.12120367 0.112449415 -0.2053998 0.059519626 -0.17662907 -0.50582063 0.085171
0.746475 0.017383205 -0.040639035 0.48979738 -0.21866141 -0.06502924 0.027182654 -0.19758889
0.031119844 0.052870102 -0.092582405 0.083927944 0.04183927 0.17369056 0.020971725 -0.0010290847
0.18325971 -0.15754984 0.040412616 0.033743 0.14041974 0.25201178 0.05939027 -0.03924509
-0.05925686 0.04778108 -0.25090486 0.06938055 -0.079710804 0.13218315 -0.0023270522 0.15052475
-0.49769258 -0.15851252 0.34876776 0.016939279 -0.18328662 -0.05520053 -0.03367475 0.0017880319
-0.2707062 -0.19162503 0.07764599 0.057856243 -0.37974617 -0.11241895 -1.7766782 0.11279888
0.22463456 -0.060125113 0.089668214 0.4989174 -0.2247771 0.46128342 0.0068064895 0.06598198
0.0026635404 0.07044105 -0.16766353 -0.17482978 -0.049372796 -0.21407285 0.21167901 -0.0098635
0.17527707 0.046184 0.16170825 -0.04247347 -0.2329566 0.25080895 -0.088356026 0.08443723
-0.14208078 -0.15319695 -0.07497497 -0.1261151 -0.053884175 -0.13889456 -0.86341673 -0.026386688
-0.23002322 0.020471439 -0.37407506 0.1299366 0.017989825 -0.20348588 -0.031670682 0.013180673

block1.1.bn1.weight f4 [8]
00000000: a6d8 513f 488f de3e b3e7 1f3f 816c ab3e
00000010: b2e6 cf3e 6cf9 303f a21f bb3e f496 5d3f
0.81971204 0.4346869 0.6246292 0.3348122 0.40605694 0.6913059 0.3654757 0.8655846

block1.1.bn1.bias f4 [8]
00000000: 6d44 0e3f 1dae 8fbe ee6e eabd ad30 80be
00000010: b773 673e 8ca6 493f 60b9 30be 3803 4cbe
0.5557316 -0.28062525 -0.114469394 -0.25037137 0.22602735 0.78769755 -0.17258215 -0.19923103

block1.1.bn1.running_mean f4 [8]
00000000: a906 af40 3fff adbe 15bf 90be ad5f aa3f
00000010: 2357 e2bf c463 89c0 ba81 743f aed8 96c0
5.469563 -0.339838 -0.28270784 1.3310448 -1.7682842 -4.2934284 0.9551045 -4.71395

block1.1.bn1.running_var f4 [8]
00000000: ad65 1d41 568b 0f3f f4ec 0540 1d98 ed3e
00000010: 4af3 fb3f 83a4 ff40 a21a 503f e6e6 2b40
9.837323 0.56071985 2.0925875 0.46405116 1.9683621 7.988832 0.8129064 2.685968

block1.1.conv2.weight f4 [8, 8, 3, 3]
00000000: da27 443e 1125 8d3c dc2c 3dbe f115 b53e
00000010: 8d0b 61be 68c8 f3be bedf 6a3e 4cda 063c
00000020: c0bd 36be fa04 12be f52a d4bc e5e3 4abd
00000030: 959f 25be cbaa 463d 33f3 a6bd 976c 23bd
00000040: 658e f3bc a6d4 1ebd 30b0 86be f392 02be
00000050: c0e4 1b3e 16bf c4be 2622 9bbd 53e5 9c3e
00000060: a523 5dbd f1ca ec3d ba25 543e e9d4 563c
00000070: b093 58bc 4c64 c63b de56 00bd d505 05be
00000080: cb57 d13a 3691 b0bc 2eff 50bd c94d da3c
00000090: 1720 98bc fcdb 3d3d 474b 3cbe 52c8 99be
000000a0: 6986 88bd fc4e 68be d3f6 6bbe 2627 5abe
000000b0: 8814 abbe 0a5b afbe 387e 24be 03f2 fc3d
000000c0: 609f b5be 7060 dcbd 4877 e33e 355b 79bd
000000d0: 8600 b2bd bcff d93d 7a5b 0638 cc20 12bd
000000e0: d8c7 b0bb 5ef2 4cbd c870 fcbd bfe9 45bd
000000f0: e100 d5bd 9c34 abbd 2be5 623d 2b21 64bc
00000100: c2bc 15be b5bf ec3c 88e2 94bd fb41 4ebd
00000110: d284 013e 4359 0bbe 49db 8d3d 1590 843b
00000120: fd40 2ebb b4aa f4bc 6f2f f93b 006a 073b
00000130: 284d a2bc e72a 903c fe63 23bd b4fa 0abd
00000140: d588 053a a8a3 87bd 51af 37bd adef 31bd
00000150: fba0 023c 3a58 8cbb 5d5b bb3c 9421 2fbd
00000160: b717 0a3d d11b 833b 065c 163d 8993 48bd
00000170: 25bd 10bd 218e 7d3c 2adf 0cbc c890 aebc
00000180: af08 8c3d 90c1 d23a efb1 2c3c 10ad 1f3a
00000190: 9f51 88bc e328 d0bc 594f 353c 4054 04bd
000001a0: d649 1abc 34f7 f43c de27 c4bb d3d8 0a3d
000001b0: f4c8 aabc 8207 cab9 14fd bcbc 926f a4bb
000001c0: f94b 8b3c 6661 3ebc 8f21 1fbb 4cab 64bb
000001d0: b259 ebbc 47df 8ebd c757 6ebd ed2e 84bd
000001e0: 78ee 22bd fcdc 5bbd dd77 c0bc a14c 3cbd
000001f0: d7a6 aebb 0b54 52ba ef2b 0bbd 9373 00bd
00000200: ac5a c1bb 8518 cbbc 30b6 f5bc 87aa 323d
00000210: 3484 06bd dcd8 7fbd c94e 23bd d00a edbc
00000220: cef8 bbbc 0bf4 28bd 4610 94bc f787 dabb
00000230: 1111 f73c d8bc 853b 3965 15bc b2e2 d1bc
00000240: 8a65 d2bd 2402 573d cd9f aebd 0555 2fbe
00000250: 46a9 96be 947b 0dbe 3d61 113d 43d1 593d
00000260: 4615 023e 9433 923e 8772 843c 1101 febd
00000270: 2b77 7c3e ac1c 66bd 8d38 31be b967 b13c
00000280: a09e 80bd e408 10be 2c8e 39bd 0bb4 c93d
00000290: c4f8 15be 6030 88be 2bfe b0bd eda8 87be
000002a0: 9d84 5ebc 29cd 9cbd b7d4 edbd 2c32 5a3b
000002b0: 4b00 e63b 7fec d13c 35af d6bd 6795 1a3d
000002c0: 7df1 9fbc 4a76 d73d 2228 0c3e f76a 41bd
000002d0: c904 b03d 57a3 e83c cfc0 f6bd 5e12 3b3d
000002e0: a598 393e 6e3b 343d d695 8bbd 7b04 e93d
000002f0: b31d 463e df7b cfbd f20d a6bd 5925 aebd
00000300: 8995 9c3e 7ce6 143f c11c 9d3d 2fe2 ce3d
00000310: e666 2e3e b959 1cbc ce08 99bd ac55 173d
00000320: 749a 623d 75b2 f0bd a4fa 6bbd af6c f7bd
00000330: 4600 493e 9944 733e b1e8 613d 8462 22be
00000340: 8b01 923d fe38 50bd 3314 e6bc 2506 ac3e
00000350: af90 663d ece7 4dbe 2c05 96bd 6670 82bd
00000360: 7511 60be 3bac 17bf 1a9e 0abe aa44 aebe
00000370: e998 d63f ab49 6abe d371 6ebe c862 c8be
00000380: ad2c 9dbe 857e 2e3e 03b4 0c3e dfe7 bebc
00000390: f593 9b3a e997 35bc 8c2c cd3a a590 413d
000003a0: 1f9a f2bb b825 773b 0552 db3d e504 363d
000003b0: 2d00 863d e7b3 803e b734 4a3e bd5d c03e
000003c0: 8cf9 82bd 2774 9a3d fd15 2e3e 58ba 02bd
000003d0: 48e2 5f3e f0ce b7bc 1e72 873d 42a7 103e
000003e0: ba31 ef3c a70d 32bd 306e 2dba 4943 053e
000003f0: c1f6 0abe 7075 433c 193e 733c 9858 353e
0.19155827 0.017229589 -0.18474144 0.35368302 -0.21977063 -0.47613835 0.22936913 0.008230757
-0.17845821 -0.14259711 -0.02589939 -0.049533743 -0.16174157 0.048502725 -0.08151855 -0.03989848
-0.029730985 -0.038777016 -0.26306295 -0.12751369 0.1522398 -0.38427037 -0.07574873 0.3064371
-0.05398907 0.115621455 0.20717517 0.013112285 -0.013218805 0.006054437 -0.031332843 -0.12990506
0.0015971599 -0.021553617 -0.05102461 0.026648419 -0.01856999 0.04635237 -0.18388091 -0.30035645
-0.06666262 -0.2268638 -0.23043375 -0.21303996 -0.33414102 -0.34249145 -0.16063774 0.123508476
-0.35473156 -0.107605815 0.44426942 -0.060877997 -0.08691506 0.106444806 3.2033284e-05 -0.03567581
-0.005394917 -0.050035827 -0.12326199 -0.04831862 -0.10400558 -0.08359644 0.055394333 -0.0139239235
-0.14622787 0.028900007 -0.0726977 -0.050355893 0.12648323 -0.1360827 0.06926591 0.004045496
-0.002658903 -0.029866554 0.0076045315 0.0020662546 -0.019812182 0.017598582 -0.03989028 -0.033930495
0.0005093937 -0.06623012 -0.04484493 -0.043441463 0.007972951 -0.0042829784 0.022870714 -0.042756632
0.033714022 0.0040011187 0.036708854 -0.048968825 -0.035336632 0.015475781 -0.008598128 -0.021309271
0.06837594 0.0016079415 0.01054047 0.0006091157 -0.016640482 -0.025410121 0.011066281 -0.03230691
-0.009417018 0.029903032 -0.005986198 0.033898186 -0.020847775 -0.00038534036 -0.023069896 -0.005018183
0.017004 -0.011619901 -0.0024281477 -0.003489214 -0.028729293 -0.069761805 -0.05818918 -0.06454263
-0.039778203 -0.053677544 -0.023494655 -0.045971517 -0.0053299475 -0.00080233876 -0.033977445 -0.03136022
-0.0059007015 -0.024791965 -0.0299941 0.04361966 -0.032840922 -0.062462673 -0.039870057 -0.02893582
-0.022945788 -0.041248363 -0.018074166 -0.0066690403 0.030159505 0.00408135 -0.009118372 -0.025620792
-0.10273273 0.052492276 -0.08526573 -0.17122276 -0.2942602 -0.13816673 0.035493124 0.053178083
0.12703428 0.28554976 0.016167892 -0.12402547 0.24654834 -0.056179687 -0.17306729 0.021655904
-0.06280255 -0.14065892 -0.0453016 0.098487936 -0.14645678 -0.26599407 -0.08642229 -0.26496068
-0.013581422 -0.07656319 -0.11612838 0.0033294065 0.007019078 0.025625465 -0.10482637 0.037740137
-0.01952433 0.10520609 0.13687184 -0.04722115 0.08594663 0.028398199 -0.12048494 0.045671813
0.18124636 0.04400199 -0.06815688 0.11377808 0.19347267 -0.101310484 -0.081081286 -0.08503217
0.30582836 0.5816419 0.076715 0.10101735 0.1703144 -0.009542876 -0.074723825 0.036946937
0.05532308 -0.11752788 -0.057612076 -0.120812766 0.1962901 0.23756637 0.055153552 -0.15857893
0.071292005 -0.050835602 -0.028085804 0.33598438 0.056290325 -0.20108002 -0.07325205 -0.063690946
-0.2188166 -0.5924718 -0.13536873 -0.34036762 1.6765414 -0.22879665 -0.23285608 -0.39137864
-0.30698147 0.17040451 0.13740544 -0.023303924 0.0011869656 -0.0110835815 0.0015653535 0.047257084
-0.0074036266 0.003771169 0.10709003 0.04443826 0.06543002 0.25137255 0.19746672 0.37571517
-0.063952535 0.075416856 0.17000575 -0.031915992 0.21863663 -0.022437543 0.06613563 0.14126304
0.029198516 -0.04347005 -0.00066158455 0.13013949 -0.13570692 0.011929855 0.014846348 0.17709577

block1.1.bn2.weight f4 [8]
00000000: 21fa 163f 45ba 793c 44c8 333f 8bc3 f23e
00000010: eb2a 2a3c 308d 373f dabb 213f 4976 2e3f
0.58975416 0.015242164 0.70227456 0.47414812 0.010386209 0.7169981 0.63177264 0.6814924

block1.1.bn2.bias f4 [8]
00000000: 0b38 c1bd c2e7 2abd b216 31be e635 973f
00000010: e3d1 0fbd 4cdc 453d ffc7 633e 8c03 d13e
-0.094345175 -0.041724928 -0.17293814 1.1813323 -0.035112273 0.048305795 0.22244261 0.4082302

block1.1.bn2.running_mean f4 [8]
00000000: a72b 80bf f747 cdbe 6211 e03e 1bc7 98be
00000010: 710e 893e 213f 0dbf e8a2 2ebf 65be cdbe
-1.0013322 -0.40093967 0.43763262 -0.29839405 0.2676883 -0.5517445 -0.68217325 -0.40184322

block1.1.bn2.running_var f4 [8]
00000000: f7fd 293f ffa2 df3c be06 153f df94 5f3f
00000010: 45e7 ac3c 12be 053f 6c64 9a3f dca4 913f
0.66403145 0.027299402 0.5821341 0.87336534 0.021106372 0.5224315 1.2061896 1.1378436

block1.1.conv3.weight f4 [16, 8, 1, 1]
00000000: 3795 ca3d 782e 863c 2c50 19bd 1c90 4d3d
00000010: 2bf8 5d3d 2ea3 ef3d 00a5 96bd c3e9 6fbe
00000020: dbf3 5f3d fe39 24bd b180 edbe 74e7 633e
00000030: 48dd 643b 0e41 c0be e6e6 323e 8ff4 a3bc
00000040: f580 5dbd 7783 9c3d 3024 ed3c 2a3e c3bb
00000050: c7e8 05bc 0ea8 d73e 3746 283c 3da7 14be
00000060: 4e32 c43d c542 b73a 45e6 cebe 4b48 a63e
00000070: bf55 2ebc 0ddb aebe 3445 debd 4669 5d3c
00000080: 3a93 b63c 27bd 81bc fe7d de3e 4c68 febd
00000090: f545 82bc 4d8f 943e 62b1 fd3e 6a2f 7c3e
000000a0: d8b5 233d 0f3e d0bc 52eb 01bd 7986 d1be
000000b0: e53b 4d3d 81ae 42be 7c49 1fbe 0960 493f
000000c0: fc6a aa3e 860e 8ebc 2324 d23d 6777 92bf
000000d0: a521 b9ba 17ff 26be 6d98 c53e 85a2 78be
000000e0: cece 2d3f f6a7 25bd e568 e8be 97e1 343e
000000f0: a2d8 ee3b ed7b 1a3e 8737 afbe 0e98 0cbf
00000100: 7a03 7dbe 15e6 1d3c bf9e d83e 85ba 92be
00000110: 5330 e73b 0789 613e b5cd 153e 3461 dbbe
00000120: 4b2b c6bc 2c18 0a3d 1282 253d 38c4 49bd
00000130: 4541 e7bc c0b0 f83e a4fc 713e 0cb3 51be
00000140: fa1f 863c 483d a439 3c14 9bbd bc16 a6bb
00000150: 294c cd3c 3b7c f83d debc a63e dda3 6dbd
00000160: e2ed 01be 2568 48bb e518 8fbd fce8 46be
00000170: ffcb 8b3d 2ff2 bc3b a937 4d3e 8b4f 313e
00000180: 76cd b73e 50a6 263d cd06 ecbd 7253 fa3e
00000190: 870b bc3b 36e3 93be f21a ab3c e0a1 ed3d
000001a0: 057a 3dbc e5a8 d1bc 1bb7 6bbe 85a9 52bc
000001b0: 6d01 fc3c 3f67 ed3e 92c8 993d 47f8 703d
000001c0: 0d22 7e3d 247b 853d fb75 c6bd c2d7 883e
000001d0: dd66 513c daab 9fbe eced 3c3f cbe5 1cbf
000001e0: efee f13d c9d4 14bd c996 70bc 6b2e 8abd
000001f0: 71df 67bd ee67 9fbe df2f b13d 5c5e 743e
0.09891742 0.01637958 -0.037429973 0.05018626 0.05419175 0.11701046 -0.0735569 -0.23429017
0.054675918 -0.04009437 -0.46387246 0.22256261 0.0034921933 -0.37549633 0.17470893 -0.020014076
-0.05407806 0.076422624 0.02894792 -0.0059583383 -0.008173174 0.42120403 0.010270647 -0.14516921
0.09579907 0.0013981691 -0.40410057 0.3247703 -0.010640561 -0.34151497 -0.10853043 0.013513869
0.022287 -0.015837265 0.434555 -0.12422237 -0.015902499 0.2901558 0.49549395 0.24627462
0.03996834 -0.025420217 -0.03171856 -0.40922907 0.050105948 -0.1901188 -0.15555376 0.78662163
0.33284748 -0.01734091 0.10260799 -1.1442689 -0.0014124407 -0.16308247 0.38592854 -0.24280746
0.67893684 -0.040443383 -0.45392528 0.1766418 0.0072890082 0.15086336 -0.34222052 -0.5491952
-0.24708357 0.009637375 0.42308614 -0.28657928 0.0070553212 0.22024928 0.14629252 -0.42847598
-0.024190566 0.03371446 0.040407248 -0.049259394 -0.028229365 0.4857235 0.23631531 -0.20478457
0.01637267 0.00031326176 -0.07572219 -0.005068628 0.02506073 0.1213307 0.3256597 -0.0580176
-0.12688401 -0.0030579653 -0.0698717 -0.19424814 0.068260185 0.005766175 0.20040764 0.173155
0.35898942 0.04068595 -0.11524735 0.4889179 0.005738679 -0.28884286 0.020886872 0.11603141
-0.011564736 -0.02559323 -0.23019068 -0.012857799 0.030762399 0.46367833 0.07508959 0.058830526
0.062044192 0.06517628 -0.09690472 0.2672711 0.012780872 -0.311858 0.7380054 -0.61288136
0.11813151 -0.03633574 -0.0146843875 -0.06747135 -0.056609575 -0.3113398 0.08651709 0.2386412

block1.1.bn3.weight f4 [16]
00000000: e8e5 47be 5266 18be 6c41 54bd bb90 1b3e
00000010: 0867 3a3f ad7a 563f c833 4fbf 0cba 373f
00000020: d20c 6b3e ffcd ae3d 71a5 c4bd 7a67 e33d
00000030: d763 f93d 1c8f 9a3d 2cb1 9f3f 0283 0e3e
-0.19521296 -0.14882782 -0.051820204 0.15191929 0.72813463 0.8378094 -0.80938387 0.7176826
0.2295411 0.085353844 -0.09601868 0.11103721 0.12177246 0.07546827 1.2475944 0.13917163

block1.1.bn3.bias f4 [16]
00000000: 3521 48bd 80c0 323d e52b 6c3e bac6 6ebd
00000010: a168 f0bd 8011 a13d 89ec 8f3a 7bd7 523f
00000020: a08a a53d 5948 2ebd 3e3e cbbe 9be7 813c
00000030: 00a7 2b3b 32b8 e33d 3928 b33d 7c22 13bd
-0.048859794 0.043640614 0.2306362 -0.05829499 -0.117387064 0.07864666 0.0010980527 0.8236005
0.08083081 -0.042549465 -0.39695925 0.015857508 0.002619207 0.11119117 0.08747906 -0.03592156

block1.1.bn3.running_mean f4 [16]
00000000: 1b33 30bd 0d5d 033e 15c6 2d3d 4a70 513e
00000010: 2ee9 a13e b54b 40be 7384 a9bf 97de dbbd
00000020: 6cea d2be fdeb 703d be62 d03d 6711 d4bd
00000030: 6d16 1b3f 9e04 063e b8df 303e c42f 18ba
-0.043017488 0.12828465 0.042425234 0.20452991 0.31623214 -0.1877888 -1.3243545 -0.10735815
-0.41194475 0.058818806 0.101750836 -0.10354882 0.60581094 0.13087699 0.17272842 -0.00058054575

block1.1.bn3.running_var f4 [16]
00000000: 1a85 bf3c f52a d83d 7d63 543d 606b ca3d
00000010: 001c e93d 762d 5e3e b4a8 9c3e 9858 723e
00000020: c43f e93d 9c52 b33d b107 cb3c 5f59 d53c
00000030: 1ead d53d 181f 3c3d 6dcb 923e 9a24 1d3d
0.023378897 0.105550684 0.051852692 0.098837614 0.11382294 0.2169703 0.3059746 0.23666608
0.113891155 0.08755991 0.024783941 0.026043592 0.1043341 0.04592809 0.28670827 0.038364984

block1.2.conv1.weight f4 [8, 16, 1, 1]
00000000: 69a2 87bb c06e 60be 02b1 78be 2763 24bd
00000010: 97ec 633d ef5b 3cbe f0ce 313f 5f54 a73e
00000020: bb15 2e3f 3d19 6e3c b87b 6b3d fe99 0cbf
00000030: b80f 11be f311 81be 0cdb 73bd e839 b8bd
00000040: ef49 40be af57 a33e 59ff a9bf 70a8 acbe
00000050: 9f11 813e a774 acbd 7e68 893e 376f e6bc
00000060: 2562 a2be 39da 1fbd f3ba c43d 269b 033e
00000070: 68b7 293e dbd9 053e 8ab6 b2bd 7f0e 6b3e
00000080: f4e4 c53c 9e42 d83b dc90 ccbd c3a1 cfbb
00000090: a1e8 78bb a530 bf3d a9d2 553f f699 153e
000000a0: f144 3dbf 2388 283d 1392 5abe 7836 c8bd
000000b0: f063 183f b26c 33be e349 9c3e 1abb cebd
000000c0: b434 7d3e a3bb ecbe d7ac 26bf 8e38 8abc
000000d0: 3efe 6ebc 8e48 24be 52dc 1cbe 65ea 183d
000000e0: 5f43 b23e 4f1d fbbd d7d2 a0be 3cb9 703d
000000f0: 8059 1e3f 0fd2 093f 8fe1 82bd f990 32bc
00000100: 7f52 36bd 3814 bbba 9381 1e3c 5532 5c3c
00000110: ed64 02bc 2e82 62bc fd46 bbbb ed67 38bc
00000120: 7135 9bbd bb13 ce3a 1118 e4bc 5ca8 9f3c
00000130: 1fcc 0d3d b7bd ea3c ba7c 90bc ceff 6b3d
00000140: 1922 f93d d9ae 0e3e 3415 883f d21f e3bd
00000150: 597e 633d e5ea 203e 3bcb 573e 5fff 8e3e
00000160: 2267 d93e 4eb6 7b3e 3587 9bbc 5829 7abe
00000170: 71a0 113e 09da b63e 4a58 a9bb 6392 b0be
00000180: 72af a03d 2343 5dbc da91 893b a73f eabd
00000190: e87f 22be f4b8 7ebd f29f d7be 3cb9 c9be
000001a0: 4674 29bc c408 9a3d 66a6 54be d3c4 ccbd
000001b0: aed3 4a3f 7c1b 00bf f91b c3bb be96 623e
000001c0: fdc2 db3d f277 79bc 5f1b 2c3c 09c2 c3b8
000001d0: 7d02 443c 4521 12bc 2003 5d3d a22d 90bd
000001e0: 8e1e 22bd 9ccd c5bb e8f6 2d3d 8ce1 c63b
000001f0: cf5b aabc 5a31 b3bb 8573 403c 74db 54bd
-0.004139234 -0.21917248 -0.24286273 -0.04013362 0.05564555 -0.18394445 0.69456387 0.32681558
0.6800191 0.014532384 0.057491034 -0.54922473 -0.14166152 -0.25209007 -0.05953507 -0.0899542
-0.18778203 0.31902835 -1.3281051 -0.33722258 0.25208756 -0.08420687 0.26837534 -0.028129203
-0.31715503 -0.039026473 0.0960597 0.12852153 0.1657387 0.13071387 -0.08726223 0.22954749
0.024157025 0.0065997383 -0.09988567 -0.006336422 -0.0037980455 0.0933545 0.83524567 0.14609513
-0.7393332 0.041145455 -0.21344785 -0.09776014 0.5952749 -0.17521933 0.3052512 -0.100942805
0.24727136 -0.46236905 -0.6510748 -0.01687267 -0.014586983 -0.16043302 -0.1531842 0.03733291
0.34817025 -0.122614495 -0.31410858 0.058770403 0.61855316 0.5383615 -0.06390678 -0.010898822
-0.04451227 -0.0014272993 0.009674448 0.0134397345 -0.007958633 -0.013824983 -0.0057152496 -0.011255247
-0.075785525 0.0015722433 -0.027843507 0.01948946 0.034618493 0.028654916 -0.0176376 0.057617
0.12164707 0.13933887 1.0631471 -0.110900536 0.055540416 0.15714605 0.2107362 0.27929208
0.42461497 0.24581262 -0.01898537 -0.24429834 0.1422136 0.35713223 -0.0051679956 -0.34486684
0.078459635 -0.013504776 0.004198295 -0.11437922 -0.15869105 -0.062188104 -0.42114216 -0.39399135
-0.010342663 0.07521203 -0.20766601 -0.09998479 0.7922925 -0.5004194 -0.0059542623 0.22127816
0.107305504 -0.015226351 0.010504573 -9.3344664e-05 0.011963484 -0.008919065 0.05395806 -0.07039954
-0.03957992 -0.0060364734 0.042471796 0.0060693678 -0.02079573 -0.0054685296 0.011746292 -0.0519671

block1.2.bn1.weight f4 [8]
00000000: d1fe ef3e 0835 4a3f 1920 5f3f c6f5 3b3f
00000010: ba67 023c 5a60 093f 9592 d43e f431 233b
0.46874097 0.7898717 0.8715835 0.73421896 0.007959301 0.53662646 0.41518083 0.00249016

block1.2.bn1.bias f4 [8]
00000000: 8405 cc3e 4650 873e cfef 24bf a9b9 593e
00000010: 0af5 0bbd eb33 363f c0c9 183f b2e0 e1bc
0.39847958 0.2642843 -0.6442842 0.2126223 -0.034169234 0.7117297 0.59682846 -0.027572963

block1.2.bn1.running_mean f4 [8]
00000000: d8a5 db3f 3a0b c4bf 5274 c13f 7660 4a3e
00000010: 91f2 19bc f75d b140 6451 fbbf a99c bdbd
1.7159986 -1.5315926 1.5113623 0.1976336 -0.009396211 5.5427203 -1.9634213 -0.09258396

block1.2.bn1.running_var f4 [8]
00000000: ebcc 6240 c22f 0441 bc23 5040 cae5 6d40
00000010: 0c10 eb3c 49c9 e240 83c0 3e40 b0d8 aa3c
3.5437572 8.26166 3.252181 3.7171502 0.028694175 7.087071 2.9805 0.020855278

block1.2.conv2.weight f4 [8, 8, 3, 3]
00000000: 6dbd 9f3d 3ce4 443f 92f6 643d a543 89bd
00000010: f885 02bf b05a 593d 34d0 34be 5097 65be
00000020: 11e5 33be 0d4b 523e 3700 ca3d 96a4 573d
00000030: bec0 cabe 4ee4 36be 4485 7a3d 2bb0 c03d
00000040: 374f 243e d4c5 283e 438d e43d 20f4 443e
00000050: d542 2c3d 126d 6a3c c813 81be 937b 25bd
00000060: f60a abbd de54 cebb bb4c e0bc 05fe 943d
00000070: fb1f 66bd 5335 6cbc adb9 ffbd bbe8 c23d
00000080: 8e54 12be 2803 27be bf35 903e 0fe7 25be
00000090: bf78 523c 9a1d 4b3d 1823 62bb 12d9 ee3c
000000a0: 05ab bc3b 9e10 793c 77da d93c 5996 d23c
000000b0: 993b 133c 4f0f 703e 1a6b f73e 441f 833e
000000c0: 6a66 3dbe c186 1ebf 5ebe 843d 52cb 10bc
000000d0: e8c8 ba3d ec31 ee3d fcce f1bd e10f 84be
000000e0: 93fe f8bd 87ee 083e 23e2 dc3d 5716 b5bc
000000f0: bf0a b13c 8d8f 3e3d a9e8 803d 1f7f 29bd
00000100: 583a 17ba 9533 f03b 533f 21bd 18f7 e6bc
00000110: 3f0f 3fbd 5cb1 06bd 7717 08bd 4439 bdbc
00000120: 4f87 18bd 2f27 fcbc 8d88 4fbd 112c 88bc
00000130: a20d 2cbd 3d35 34bd 9d9a 303c ac38 abbb
00000140: a2e1 5c3c d2d5 29bc c42f 653a e7c4 86bc
00000150: e568 f63c 5aba 733c b0e9 703c 3064 92bc
00000160: 144b a9bc fba4 533b 4654 6ebd 44a9 49bd
00000170: a7db 42bd e1f8 f6bc 70b7 fbbc 61fd ce3c
00000180: 6bc8 093c 3234 393d 9be9 e23c 759b 22bd
00000190: 4846 26bd cbbe 2cbd 35ce 0bbd 36fd bb3c
000001a0: 9914 eebc 1311 a5bb d2e6 4e3c d16a c13b
000001b0: 47bb 70bc 95f5 00bd 21ad f1bc faaa 9dbc
000001c0: 1a00 6bbc 8c99 c9bb f339 86bb c721 033d
000001d0: d268 223c bb38 873c 5761 f93c e679 c03c
000001e0: b6e4 b7bb ce0a 583c a59d 013d 94e0 f73c
000001f0: c965 4a3d 062d ec3c bf4f 1cbd 951d 04bd
00000200: 0c03 483c 07e8 3b3c 9d83 1f3c a944 483d
00000210: 53a3 bc3c 0194 6fbc 2b43 453c 12bd 9d39
00000220: 0fe3 a5bc 71f6 adbc cd04 623a 1a65 1cbd
00000230: ebc1 f2bc c8c5 46bd f585 d5bc 2b59 4ebd
00000240: 3590 8abe 52e7 353d 2858 ae3e ff98 2e3d
00000250: 05b5 553e 040f af3e d632 44be 9bad e43d
00000260: 258a 843d 5269 56be 9a4c 623e 36c1 833e
00000270: baf0 ec3e ad89 0c3f 3e90 c23a 701b e0bd
00000280: f760 833d cf4a 703d ab29 203d a792 d33d
00000290: c4bd b03d 616e 06bc fe2e a1be 3550 8cbe
000002a0: effc 453e 15eb 4fbe 55cd cbbd ee29 793d
000002b0: f921 0f3e 210b e8bd 8814 303f f55b 123f
000002c0: f1e9 5ebe fe12 c5bd 1e41 54be d61e 063e
000002d0: 8b08 98bc a7ea 0b3b e96d 9dbc 3e5c 95bc
000002e0: 3be5 9f39 bf02 08bd c513 cc3b 603a f23b
000002f0: dbfe 7c3a 1bfc 4bbc 859d eebd f642 ccbd
00000300: 6376 58be b45f e6be ce03 c6be ea36 13be
00000310: 804e 58be 42ac a23e 36e3 01be 6f9d cebd
00000320: 3f96 0abe 4b23 c2be 2a93 593e ce72 8c3e
00000330: 964a cabc 58e9 16bd 4931 3fbe 12ed 093d
00000340: 7a2a 7ebb f4e0 773b 58b3 8e3c 8be9 38bb
00000350: bca3 223c ad8e f13c b7ff e5bb 08f2 233d
00000360: d8f0 413e a794 cd3e 6211 893e 0538 e03b
00000370: 23c9 48bf 40bb 6b3d c1b9 adbd be46 3bbe
00000380: 5795 c6bc 014d e7bd b139 7dbd 8a39 3f3d
00000390: 7a3d 3b3e b487 0dbc 26de 3ebd dfd0 d7bd
000003a0: d75c 65bd dcec 9c3d 2f75 26bd b409 563c
000003b0: 2261 b6bd 091b 25be 4817 c9be e03a 88be
000003c0: c6f0 18be c558 bebe ce62 68be a20e 1cbd
000003d0: 5a0f 29bd c189 d43d f722 9c3e 2c65 0cbe
000003e0: 90d3 a03d fdda 483e 423e 75be 0a9c 2d3e
000003f0: 6288 9cbc 993c 9dbc 413f 26bd 2c4d 5abc
0.07799802 0.7691076 0.05589921 -0.06702355 -0.5098567 0.053065002 -0.17657548 -0.22421002
-0.1756785 0.20536442 0.09863322 0.052647196 -0.39600176 -0.17860529 0.06116225 0.094086014
0.16045843 0.16481715 0.11159756 0.19233751 0.042055923 0.014308231 -0.25210404 -0.040401053
-0.083517 -0.006296738 -0.027380338 0.07275013 -0.056182843 -0.01441701 -0.12486587 0.09517046
-0.14290068 -0.16309798 0.28166005 -0.16201423 0.012846171 0.049588777 -0.003450578 0.029156242
0.005757692 0.015201716 0.02659343 0.025706457 0.008986377 0.2344334 0.483239 0.2560979
-0.18496099 -0.6192437 0.06481622 -0.008837538 0.09120351 0.116306156 -0.11807057 -0.25793365
-0.12157931 0.13372241 0.1078532 -0.022105379 0.02161157 0.04652362 0.062943764 -0.041380998
-0.0005768887 0.007330368 -0.03936703 -0.028193995 -0.0466454 -0.032883987 -0.033225503 -0.023098595
-0.037238415 -0.030780403 -0.050667334 -0.016622575 -0.04200519 -0.043996084 0.01077905 -0.0052252617
0.013481529 -0.01036592 0.00087427744 -0.016451312 0.030079314 0.014875973 0.014704153 -0.017870039
-0.020665683 0.003229438 -0.05818584 -0.04923369 -0.047572758 -0.030147972 -0.030727118 0.025267305
0.0084096 0.045215793 0.027699282 -0.039699037 -0.04059437 -0.04217414 -0.0341322 0.022947889
-0.029062556 -0.005037436 0.012628274 0.005902626 -0.014693088 -0.031484205 -0.0295015 -0.019246567
-0.014343286 -0.0061523374 -0.0040962636 0.032014634 0.009912686 0.016506543 0.030441923 0.023495626
-0.0056119813 0.01318617 0.031644482 0.030258454 0.049413476 0.028830063 -0.03816199 -0.032254774
0.012207758 0.011468894 0.009735969 0.048893604 0.023027098 -0.014622689 0.01203994 0.00030086242
-0.020249872 -0.021235676 0.0008621931 -0.038182355 -0.029633483 -0.048528463 -0.026064852 -0.050378006
-0.27063146 0.044410057 0.34051633 0.042626377 0.20869835 0.34191144 -0.19160017 0.11165925
0.064716615 -0.20938614 0.22099534 0.25733346 0.4627741 0.54897577 0.0014844013 -0.10942733
0.06414979 0.058665093 0.039102238 0.10330706 0.08629945 -0.008205027 -0.31481165 -0.27404943
0.19334768 -0.2030452 -0.09951273 0.060831003 0.13977803 -0.11330248 0.6878133 0.57171565
-0.21768929 -0.09622763 -0.20727965 0.130977 -0.018558761 0.002134958 -0.019217448 -0.018232461
0.00030497633 -0.033205744 0.0062279426 0.0073922127 0.00096510135 -0.012450243 -0.11651138 -0.09973709
-0.21138911 -0.4499489 -0.38674778 -0.14376417 -0.21123695 0.31772047 -0.1268433 -0.10088622
-0.13533877 -0.3791755 0.21247545 0.2743134 -0.024693768 -0.036843628 -0.18671145 0.033673353
-0.0038782642 0.0037823291 0.017419502 -0.0028215374 0.009926733 0.029486978 -0.007019009 0.04002574
0.18939531 0.40152475 0.26771075 0.0068426155 -0.7843191 0.057551622 -0.08482695 -0.18288705
-0.024241133 -0.11293984 -0.061822597 0.046685733 0.1828517 -0.008638311 -0.046598576 -0.10537886
-0.055996742 0.07662365 -0.0406391 0.013063837 -0.08905245 -0.16123594 -0.39275575 -0.26607418
-0.14935598 -0.371771 -0.22693941 -0.038099892 -0.041274406 0.10377837 0.30495426 -0.13710469
0.07852852 0.19614787 -0.2394953 0.16954055 -0.019108001 -0.019193934 -0.040587667 -0.013324063

block1.2.bn2.weight f4 [8]
00000000: 0bba bd3e b761 e83b 0be1 373f f1bc bb3e
00000010: 3ce0 023f 4b9b 723f 344d 023f cc45 273f
0.37056002 0.0070917266 0.71827763 0.36667588 0.51123405 0.9476821 0.5089905 0.65340877

block1.2.bn2.bias f4 [8]
00000000: 57cd c13e b7d3 44bd 452d edbd a96e 2d3f
00000010: 5610 d03e 0aca 5cbf 9372 7abe 9280 fd3c
0.37851974 -0.04805347 -0.115809 0.6774698 0.40637463 -0.8624579 -0.24457769 0.030945096

block1.2.bn2.running_mean f4 [8]
00000000: 0944 b83d 95c6 8b3c 08f2 d6bc 9c59 74be
00000010: f2bc 243f b607 5a3f 9b58 ad3e b139 f0bd
0.08997352 0.017062465 -0.026238456 -0.23862308 0.6435081 0.85168016 0.33856663 -0.11729754

block1.2.bn2.running_var f4 [8]
00000000: 0870 b93e f52f 6b3c e0ec 593f 5905 fe3e
00000010: 7098 3d3f b8ea 0d3f a39f 0a3f e23f 4e3f
0.36218286 0.014354696 0.8512707 0.49613455 0.74060726 0.5543628 0.54149836 0.8056623

block1.2.conv3.weight f4 [16, 8, 1, 1]
00000000: 8ee1 8abe f004 d5bc 9709 96bd fb6e babe
00000010: 263a 0dbc ba08 aa3d 16dd 003e 9331 013f
00000020: d556 24be ed6d 683c e1a6 25be b3c2 0d3f
00000030: 45fc a4be 5fb6 fc3d d050 fc3d ee24 a23d
00000040: fabf 72bd 5dc5 f93c 5966 2abf b421 4bbe
00000050: a70e 243f e746 72bc f6f3 013d 0300 9cbe
00000060: e743 a93d 0839 ddbb e558 9cbe 5439 113d
00000070: eb7b ba3d 3ae1 0abf ea76 843c c38e 66bd
00000080: 423c cdbe e234 14bc e267 be3d c36b 833e
00000090: 20cf b23e 513d ef3e 499d 54be 7d1e a63d
000000a0: b236 b8bd 27e3 093d 5ec1 c0be 5b4f 8cbd
000000b0: 9f8b 91bc 7781 3a3e d8ae 923e 35be aa3e
000000c0: 7fe5 8ebe 9a61 dabc 76f9 81be 896f d7be
000000d0: c21d 9fbd dbdb 433e 32de 72bf d220 37be
000000e0: 6cbd 71be aff8 dbbc dd75 b53e c852 193d
000000f0: fc79 053e bca9 79be 256d 11bd 3295 0cbf
00000100: 100f 98be a7d8 033d 8c4c 933e 3ae0 b53d
00000110: fe0d d0be 6b70 48be 2bea 39bd b6ca 183f
00000120: 68fc 65be d16b 3d3d 0c5d 023f 64a0 783e
00000130: 3138 09be ebcc b0bc bc7f 8e3d a110 883d
00000140: 4dd7 c4bd a858 7c3c 2739 9dbd 78cf 8abe
00000150: 1b27 e93e 35b8 2dbe d6b4 133e baf1 e43e
00000160: b111 843e 9d7d 89bc 842d fd3d e989 9b3d
00000170: d637 113d d320 40be f380 8c3e 3657 083e
00000180: c03b d4bd 62c4 ed3c 13f1 5e3e b62a 0a3e
00000190: 2d79 903e b8ec 87bf b9fd b73d fd1e f3bd
000001a0: c565 1d3e c78d 77bc ecd6 e13b 3d22 10bd
000001b0: 3174 713d 4601 d1be 0a87 f7bc 50d3 f4bd
000001c0: de5b dabe c5b6 cb3b c60c e5bd 0b35 e1be
000001d0: cb0a c3bc 1609 5c3d ba49 1b3d 4f10 4fbe
000001e0: d8c1 96be f9cf 66bd ae3d f43d caa4 febe
000001f0: 5814 aebe 7b72 0dbe c1bd dd3d a85d a9be
-0.2712521 -0.026003331 -0.07326048 -0.36412796 -0.008619821 0.08302446 0.12584338 0.5046627
-0.16048749 0.014186365 -0.1617694 0.5537521 -0.32223716 0.12339472 0.12320101 0.079172
-0.059265114 0.030489618 -0.6656242 -0.19837075 0.6408486 -0.014787412 0.0317268 -0.3046876
0.082649045 -0.0067511834 -0.3053657 0.035455063 0.09105667 -0.5424992 0.016169984 -0.056288492
-0.40085036 -0.009045811 0.09297158 0.25668153 0.3492365 0.46726468 -0.20763125 0.08111284
-0.08994807 0.033663895 -0.37647527 -0.06851073 -0.017766772 0.1821345 0.2864902 0.3334824
-0.27909467 -0.026657868 -0.25385636 -0.42077282 -0.07769348 0.19126837 -0.94870293 -0.17883614
-0.23607415 -0.02685198 0.35441485 0.037432462 0.13034815 -0.24381155 -0.03550448 -0.54915154
-0.29698992 0.032189038 0.28769338 0.088806584 -0.40635675 -0.19574134 -0.045389336 0.5968431
-0.22459567 0.0462454 0.5092323 0.24279934 -0.13400342 -0.021582088 0.06957957 0.06643797
-0.09611378 0.015401997 -0.076769166 -0.2711141 0.45537648 -0.169648 0.14424452 0.44715673
0.25794747 -0.01678353 0.12362197 0.07594664 0.03545364 -0.18762521 0.2744213 0.13314518
-0.10362959 0.029024307 0.2177165 0.13492855 0.2821745 -1.0619116 0.08983941 -0.11871145
0.15370853 -0.015109486 0.0068920758 -0.035188902 0.0589487 -0.40821284 -0.030215759 -0.11954367
-0.42648214 0.006216856 -0.11184077 -0.4398578 -0.023808857 0.053719603 0.037912108 -0.20221065
-0.29444766 -0.056350682 0.11925827 -0.497351 -0.33999896 -0.13813202 0.10827208 -0.33079267

block1.2.bn3.weight f4 [16]
00000000: 6035 213f cf7e e73d ca97 c03e b0be e83d
00000010: 2063 1a3f d409 90be 9c23 083f 45aa a33e
00000020: 9eda e13e e34c e83d 7d3d 4c3e a4ab 6c3e
00000030: 1cd5 1e3f b400 953d 1ca6 cb3e a042 143f
0.6297207 0.11303484 0.37615806 0.11364496 0.603075 -0.28132498 0.53179336 0.31965843
0.44112104 0.1134279 0.19945331 0.2311235 0.6204393 0.07275525 0.3977517 0.5791416

block1.2.bn3.bias f4 [16]
00000000: 8a0b 9ebd fd1e 4bbd 0d99 cf3e 95f6 7abd
00000010: 5b78 d63d d79d ab3d 6e5a 05be 40d5 b93d
00000020: a29f 203d 2f0c 5fbe 8441 593e 377d 2e3d
00000030: 0ecc 73bb fcc7 d63c f030 e0bd a890 3abd
-0.07717045 -0.0495901 0.40546456 -0.061270315 0.10472175 0.08379715 -0.13022777 0.09073877
0.039214738 -0.21781991 0.21216398 0.042599883 -0.0037200483 0.026218407 -0.10946834 -0.04554811

block1.2.bn3.running_mean f4 [16]
00000000: e5c7 6dbe 6773 3e3e 5cd3 bbbd ea58 1ebd
00000010: da60 7a3e 91f0 30bd bd8f 1cbf be9a cbbd
00000020: d36b 53bd b9e5 183e 1aa4 853d ceb2 733e
00000030: e3c4 bd3d 8ac1 44bc b2bf 0dbf ae9e 2dbf
-0.23220785 0.1859871 -0.09171173 -0.038659014 0.24451008 -0.043198172 -0.6115683 -0.09941624
-0.0516165 0.14931382 0.065254405 0.23798677 0.09266069 -0.012009034 -0.5537063 -0.6782025

block1.2.bn3.running_var f4 [16]
00000000: e4cb cf3d bb70 653d db61 7d3e e69c bf3d
00000010: 1375 ce3d 69b8 913d e872 383e 159e c53d
00000020: 20d6 4a3e 8dd7 803d cc57 dd3d 5a3b 2a3d
00000030: fea5 a03e 8a71 5c3d 319d 5b3d 8c7f 963d
0.10146311 0.05601571 0.2474436 0.09356098 0.10080924 0.071152516 0.18012583 0.096492924
0.19808245 0.06291113 0.108077615 0.04156051 0.31376642 0.053819217 0.053616706 0.073485464

block1.3.conv1.weight f4 [8, 16, 1, 1]
00000000: 921e 4cbd eadd 563e 2b18 abbf ca0c d43d
00000010: e043 8dbe a4e5 3dbe a2a9 113e bacb 9b3c
00000020: 61ce 99be bac4 65be f145 ff3c 790e 483e
00000030: 2a23 4bbf 6ccb d23b 1734 273e 5b6d d43d
00000040: 69c6 053e 8dd4 213f 25cb 48bf 517a 6bbf
00000050: 6895 95be 8da6 71be b4c3 0dbe b9e7 90be
00000060: 4971 613e 6670 a83c c626 e8bd d738 a8bd
00000070: 183b 423e c91b 253d 189e ae3d b522 f83d
00000080: ff61 e23c de3d 5e3d 4630 3d3d 7e2e dbbc
00000090: 8ff8 fb3c a54f 44bd 4290 16bd 300e ea3c
000000a0: 2db5 bd3c b903 9c3c f008 a6bc 2657 1cbc
000000b0: bfc1 1ebc dfa4 e3bc 1d22 72ba 914c ae3c
000000c0: 2581 a9bd d74f c5be 07b4 c3bd 406a dc3e
000000d0: 5ada 3f3e bb76 07be 87eb fcbd 24e1 983e
000000e0: ae58 54be 9ff5 b8bd 0637 16be 0ec4 043f
000000f0: 7bb9 6d3d e56f bb3d 46ae 1ebd 13ef 39be
00000100: ff80 bf3c 1fc3 8c3e c7b7 553d d005 cebe
00000110: 38ae 9cbe 10d7 5ebd 6eaf c2bb c548 21be
00000120: 806b a3be 382f c5be 0a9d a4bd 04eb b53b
00000130: fa74 a5bf 73d0 13be b8a8 c23d 1954 a43d
00000140: ba82 483d 59bf 78bf 3810 c2bd d300 9f3d
00000150: 415b c6bd cec2 903c 55c7 84bd 759f 8d3e
00000160: 08a9 f23d 50b7 54be 3ad3 5bbe b498 143e
00000170: 3209 843e f454 51bf 6d81 27be a8d9 0bbf
00000180: 91e4 a7be 648e 583f 7bec 513e c2f1 9d3e
00000190: ae3c 3c3d ef38 2ebe d634 833e 3f76 9d3d
000001a0: ae89 e1bd 45db ae3e 5cc6 f63b bb42 3cbe
000001b0: eb51 0dbe 56bc 803f 837c 893e a261 0cbe
000001c0: 348b dd3c c327 0c3d f360 00bc 9d67 b3bb
000001d0: 3c44 8f3d b93e 233d 21a8 5ebd 77c4 163d
000001e0: f9a0 54bc 395c 013d 46fe e0bb 0bdf 9f3c
000001f0: b028 93bc 2b91 8c3d c739 38bd d618 1dbd
-0.04983384 0.20983091 -1.336675 0.10354002 -0.27590847 -0.18544632 0.14224866 0.019018043
-0.30040267 -0.22438326 0.03116128 0.19536771 -0.7935053 0.006432941 0.16328464 0.103724204
0.13063969 0.6321495 -0.78434974 -0.91983515 -0.2921555 -0.2359869 -0.13844186 -0.2830179
0.22015871 0.020561408 -0.113355204 -0.08213966 0.18967855 0.0403097 0.08526248 0.12115995
0.027634619 0.05425822 0.046188615 -0.026755568 0.03075817 -0.047927517 -0.03675867 0.028571218
0.02315768 0.019044744 -0.020267934 -0.009542262 -0.009689747 -0.027788578 -0.00092366507 0.021276744
-0.082765855 -0.38537475 -0.09555822 0.43049812 0.18735638 -0.13228886 -0.12349611 0.2985927
-0.20736954 -0.090312235 -0.14669427 0.51861656 0.058038216 0.091522016 -0.03874042 -0.18157606
0.02337694 0.27492616 0.052177217 -0.4023881 -0.30601668 -0.05440432 -0.005941323 -0.15750416
-0.31917953 -0.38512588 -0.08037765 0.0055516977 -1.2926323 -0.14434986 0.09504837 0.08023853
0.048952796 -0.97166973 -0.0947575 0.07763829 -0.09685374 0.017671015 -0.06483332 0.2766072
0.118486464 -0.20773053 -0.21467295 0.14511377 0.25788265 -0.81770253 -0.16357966 -0.5462899
-0.3279157 0.8459227 0.20500366 0.3084851 0.045956306 -0.17013906 0.25626248 0.07688569
-0.110125884 0.34151664 0.0075309705 -0.1838483 -0.1380078 1.0057476 0.26852807 -0.13709119
0.027043916 0.034217607 -0.0078356145 -0.005474998 0.069954365 0.03985474 -0.05435956 0.036808457
-0.012977832 0.03158209 -0.0068662493 0.019515535 -0.017963737 0.06863626 -0.044976976 -0.038353764

block1.3.bn1.weight f4 [8]
00000000: 5cbc 7e3f 557c 503f 6906 8a3c 0e16 263f
00000010: 4cf4 3c3f ea19 893f 132e 033f f08c 563b
0.99506164 0.81439716 0.01684876 0.648774 0.7381027 1.0711033 0.5124218 0.0032737814
