assign1/20180183_inception_best.pt (torch, 689326 bytes, 467 tensors)

block1.0.conv1.weight f4 [4, 16, 1, 1]
00000000: 447a 6cbf f352 a3bc 9198 94bf 555c 273f
00000010: c8e0 5e3e 232f 90bf 2a99 c73f 6ac2 4abf
00000020: ccc1 963c fa65 143f 1399 fdbb a40d 8d3e
00000030: 46c7 323d 8c2f d5bc 19de 83bd 7dae 04bf
00000040: 1840 323f 0a17 61bd da80 b23f c570 7c3f
00000050: b6b3 30bf 498a 1bbe 0195 b43f 921e 2abe
00000060: 445a 80bd dfab 9fbe 60bc 763d 0da3 0f3f
00000070: 2d06 0c3d 6bcc 6d3e 0901 5dbd f542 453f
00000080: 1b0f 5ebe b434 19be 754a 6d3e 574e 84be
00000090: 5c0e d7bf d24d 1bbe f51c 7cbe c47c 54bd
000000a0: 9476 45be 3fc1 ebbf f303 493e f35e 2b3f
000000b0: 9c87 b73d 0ae3 d7be b470 95bd 98f0 efbd
000000c0: 7fc9 17be f972 92bb a2e9 b43e 81a1 c93e
000000d0: a124 bc3f ce84 b33f 03b5 f63d b974 f6bf
000000e0: 7441 78bd 4170 10bf 7aaf 58bd 6fb4 ec3e
000000f0: dbec 35bb 406a 60be 87e0 bbbc 3bc8 043d
-0.9237406 -0.019937014 -1.160906 0.6537526 0.21765435 -1.1264385 1.5593617 -0.792029
0.018402956 0.57968104 -0.007739195 0.2754947 0.043647073 -0.026023649 -0.06438846 -0.5182875
0.6962905 -0.054953612 1.3945572 0.9860957 -0.6902422 -0.1518947 1.4107972 -0.16613224
-0.06267217 -0.31185815 0.060238242 0.5610817 0.034185577 0.2322251 -0.053956065 0.77055293
-0.2168545 -0.14961511 0.23172934 -0.2584102 -1.6801257 -0.15166405 -0.24620421 -0.0518768
-0.19283515 -1.8418349 0.19630413 0.66941756 0.08961412 -0.42165405 -0.07296887 -0.117158115
-0.14822958 -0.004469272 0.35334498 0.3938103 1.4698678 1.4024904 0.12046244 -1.9254371
-0.060609296 -0.56421286 -0.052901722 0.4623141 -0.0027759585 -0.21915531 -0.022934211 0.032417517

block1.0.conv3.weight f4 [8, 16, 1, 1]
00000000: 8f27 0d3f b7ab 3d3e d06a a33c ebc5 273e
00000010: 3bf6 2b3f 817b 433d c4cd 47be 3c66 943e
00000020: d6a8 e33d 2982 113f 3875 ed3b a040 88be
00000030: 3181 133e 90a7 a8bc 8ac3 c93d ed3a a2be
00000040: 0b7f 9bbf d125 45bc c8a5 323e 3768 c4be
00000050: 2994 88bc 12f4 fc3c 0d5b 6d3e e3ab 88be
00000060: 3015 c6bb 42da 4b3e f8bc 833c 5dfe 78be
00000070: 7a4c 4ebd 8c5f aebf 0f77 22bd 4e0f 5dbe
00000080: 6b0f 433d 43ed af3a 0f73 a1bd 7d62 66bd
00000090: 756d 573d a747 ebba b2a3 d73b 9fe0 0cbd
000000a0: 202a 2fbd 9b08 50bc d0ec 18bd 32a4 cd3d
000000b0: 1abb be3d 4db8 b43c ffe9 4b3d f366 213d
000000c0: 3461 4d3f be39 da3c 716a 503d 96e6 db3e
000000d0: 2b4b 4f3e 03b8 1a3e 8c5a ed3e be78 f93d
000000e0: f296 6abc 6c0d 51bd 8f15 c33d 2338 9fbd
000000f0: 28d1 2fbc 9963 7bbf 546b 8b3c 6ea5 81bf
00000100: 0396 8b3f ef6d 87bb 2f85 303d 2fe2 76bd
00000110: b33a 173e 5aa3 25bc b85b 033f fad6 a3bd
00000120: c1a4 01bb 1ba5 9b3e 1f1a be3d a7d7 37bf
00000130: 595a afbd 50f1 20bf 8b10 89bd 758f 55be
00000140: c6f6 6d3f a044 d93b 3430 ffbe 8392 28be
00000150: 1d72 6fbe 8e83 e03d 97f8 993e eb2f f53e
00000160: 9fb4 a13b 7205 01be 6d0d 423d 5f41 b63e
00000170: 05e8 553d 8cd2 3c3f 8452 74bc ef91 d1be
00000180: f079 123e b136 c03c bc02 48be ecd5 a6be
00000190: a790 163d d03e 32bd 1627 55bd c6b9 61be
000001a0: ad56 043b 46ec 2abd fb4e 42bc fb5e a5be
000001b0: f6f6 82bc eaee e1bf 017f 18bd 1545 443e
000001c0: b428 dfbd 074d 10bd fa37 edbd 3413 42be
000001d0: d4eb bfbd 0bef 7abf c6ca 9abd ee00 4ebe
000001e0: ea97 95bd 0964 80bf 215c 4cbd e2c6 85be
000001f0: a7d1 b0bd abb6 9e3d 50f3 4a3b 328c 3ebe
0.55138487 0.18522535 0.019948393 0.16384093 0.6717259 0.047725204 -0.19512087 0.2898425
0.11116187 0.56839234 0.0072466396 -0.26611805 0.14404751 -0.020587713 0.09851749 -0.31685582
-1.2148145 -0.012032942 0.17446053 -0.3836076 -0.01667221 0.0308781 0.23179264 -0.2669364
-0.006045006 0.19907477 0.016081318 -0.24315782 -0.050365902 -1.3622909 -0.039664324 -0.2158787
0.047622126 0.001342215 -0.07883274 -0.05624627 0.05259462 -0.0017950431 0.0065807933 -0.034393903
-0.042764783 -0.012697364 -0.037335217 0.100410834 0.093130305 0.022060538 0.049783703 0.03940482
0.80226445 0.026638862 0.05088276 0.4294936 0.20243518 0.15109257 0.46358144 0.12181233
-0.014318215 -0.05103819 0.09525596 -0.07774379 -0.010731019 -0.9819885 0.017018951 -1.012861
1.0905155 -0.004132978 0.043095764 -0.0602743 0.14768486 -0.010109747 0.51311827 -0.07999988
-0.001978204 0.30399403 0.09282326 -0.71813434 -0.08562154 -0.62868214 -0.066926084 -0.20855506
0.9295467 0.006630495 -0.49841464 -0.1646214 -0.23383375 0.10962592 0.30072471 0.4788812
0.004934862 -0.12599733 0.047376085 0.3559675 0.052223224 0.7375877 -0.014912251 -0.4093165
0.14304328 0.023463579 -0.19532293 -0.32585084 0.036759045 -0.043516934 -0.05203923 -0.22043523
0.0020193264 -0.041729234 -0.011859651 -0.32299027 -0.0159869 -1.7651036 -0.037230495 0.19166978
-0.108964354 -0.03522971 -0.11582942 -0.18952638 -0.093711525 -0.98021 -0.07558207 -0.20117542
-0.07304366 -1.0030528 -0.04989255 -0.26128298 -0.08633738 0.07749685 0.003096778 -0.18608168

block1.0.conv5.weight f4 [2, 16, 1, 1]
00000000: 830f 50bd 056d 4bbd 7755 8c3d ae7b eb3d
00000010: be80 553c 1d21 58bd 4eb3 613d 41a6 bebd
00000020: d72e 813d 2cdd d7bd add9 183c cb53 743d
00000030: b09f bebc ef25 a03d df17 6638 552b e1bc
00000040: 4526 a6bd 2498 bfbd 21a3 433e 5df0 0b3e
00000050: 026c eabd b86c bcbd 240c cb3d 9d0c fe3d
00000060: c95f e7bd 694f d93c ca9d 103e 97ba 2abd
00000070: e5d0 d5bd 81cc dabc edbb b0bd 8156 a5bd
-0.050796043 -0.049664516 0.068522386 0.114981994 0.013031183 -0.052765954 0.05510264 -0.09309054
0.06307762 -0.10540232 0.009329242 0.059650224 -0.023269504 0.07819735 5.4858505e-05 -0.027486483
-0.08112768 -0.093551904 0.19105197 0.1366591 -0.11446382 -0.09200424 0.09914425 0.124047495
-0.112975664 0.026527124 0.14122692 -0.041681852 -0.10440234 -0.026708843 -0.08629594 -0.0807314

block1.0.branch3_conv.weight f4 [8, 8, 3, 3]
00000000: 594b d03d ffce 823e 1c06 36bd f8a4 50be
00000010: 1887 b43e d0cd 013d e2bc 13bd 0240 a7be
00000020: ae5e 353c b502 66be 30f2 c4be f5f0 65be
00000030: 7ce3 8a3e 646b 383f 7504 063d 7159 d5bc
00000040: 64b9 863e d360 5ebe 706a 723d efa6 ce3d
00000050: 9ac5 b33d 62d7 813d 4241 223e 2ffd ec3d
00000060: aeec ac3d bed4 2f3e c628 383e 5dc1 06be
00000070: 3e8e 30be a8e2 5bbe 8fe6 4c3e fa82 263f
00000080: c791 903c ae70 dabd bd56 ad3e 918c 4e3b
00000090: 6233 bebd f493 85be 46b6 133e bb3f 033e
000000a0: 3acb 5bbf 29d4 b1bc bc9f e9bd b513 113f
000000b0: 1add c93e 533f 863d d11c c53c 03f4 d2bd
000000c0: 662e 143e 6680 2a3e 3486 4dbe 5880 83be
000000d0: 1dd6 f13e 67b8 17be 38ac 273d 9098 e83b
000000e0: 4f02 16be 15d7 03be 9c28 8e3f e19b 9b3d
000000f0: 07de 2abd 9cec 343f 27a8 07bd 2f4c 143a
00000100: 7245 8abe 9313 cb3d 6c7b 933d 7446 403e
00000110: f60e a5bc acc6 a73e 67c5 11be 4645 913d
00000120: 1733 a1bc 37ec c73d 1f47 373e 18ab c5bb
00000130: 175b 73bf a8a1 873c a61d 323e 5c7c 9d3b
00000140: d504 073e 75ee d83d 1e95 953e 0bc3 bfbe
00000150: 51df 5abd 9673 4c3e fc6d ba3d ab91 46be
00000160: dc30 8a3e b754 843d 3bdf aebb 8566 503d
00000170: df21 e03d fb3c 983c 2538 a1bb 1892 d6bb
00000180: 97ab 87bd 3067 c3bd 91ad cebd 6a9d 67bd
00000190: 8e5c 813e 6c95 c7bd 7548 0abe 08e4 1bbd
000001a0: 5c78 8bbe bbff 823d 8ce9 213e e908 1f3c
000001b0: 8f80 65be b006 203f 4b06 ed3d d912 dabe
000001c0: a7fc ba3e 90b6 803e d89d 3dbe b31e a8be
000001d0: 6be2 0e3d d02f bc39 1de7 0f3e 06c5 933e
000001e0: b37b 4ebe 7e10 94be e8a8 273e 086d b8bd
000001f0: 3f05 1ebf 443c afbd 40cc 993d f33a 0c3e
00000200: 6bd5 ac3e e72e a83e b841 4dbf bbba 91be
00000210: 30a2 803e 0c7d 95bb 26dd 233e 39f6 8bbd
00000220: 79f6 60be 9a45 c7be ef40 933e 67b5 9a3f
00000230: 5625 82bf f6eb 443e 5bbc 983e 62b0 cbbe
00000240: 0be3 2e3d 2197 043e ca24 8fbe 40e5 e43d
00000250: 2080 9a3e 76c0 633e 4f34 43be 698a 543e
00000260: 4a6e 073e 2561 c53d 4db4 83bd da63 533e
00000270: 3c44 fd3c fef2 d3be 697f 733e 353a 35be
00000280: 4c0b acbe 2b6b cd3e e9c1 153c aac0 bbba
00000290: 4a12 cabd bd10 34bd d5d6 59bd a488 a1bd
000002a0: 4970 79bd 161d 97bd 2861 c4bd 815a d03e
000002b0: 2600 21be 0af7 18be 3524 343f 56a5 28bf
000002c0: d979 2a3e f6d9 d83d 0cd0 1dbf d932 a33d
000002d0: 9f5c 10be 8d81 ec3c 5280 993d 05c9 2dbf
000002e0: a7f7 5d3f ece6 77be c33d 8bbe f7ee 8d3e
000002f0: f88d 1bbe 6034 8c3e 43c3 9bbe b995 03be
00000300: 395d 843d 83b9 4fbe b179 93bd 171c c33c
00000310: 59db 98be e9b4 2e3e 4220 39bc 3da3 fd3c
00000320: ba96 0dbe 47d5 193f d270 87bf 2378 1d3e
00000330: d3fd 1d3e 4ab5 1fbf 363d 023f d859 003e
00000340: 1b5c d1bd 59e8 fc3d 7719 9a3c 762d cdbe
00000350: 391b e93c a35f f2bc 61e2 f3bd c2ec 7b3e
00000360: 409a 363e 2fb6 2e3c 84f5 0e3e 468b 51bd
00000370: 00eb 613e ec15 823d 2028 31bc c434 1d3d
00000380: ddf9 b8bd 192a 0dbe b512 74bd a01a 2d3d
00000390: 3935 0f3e 7a81 d33e 0903 e93e b651 8a3c
000003a0: d880 1e3e 6934 14bd 6a9f a13c abfc 543d
000003b0: f0ce 0cbd 2bc8 593d fabe 273d 39d1 11bd
000003c0: e367 883c 735b 2f3c cc74 a4bc b05c b2be
000003d0: 2e63 c73d d3d1 c23d f63d f43e 166c fe3e
000003e0: 0174 4c3e a553 9c3e 5a73 b6bb c917 e7be
000003f0: 387c fe3e 844b 5b3e dcbd 103e 30fb 743e
0.101706214 0.2554855 -0.04443942 -0.2037543 0.35259318 0.03169042 -0.036068805 -0.32666022
0.011069937 -0.2246197 -0.38466024 -0.22455199 0.27126682 0.72038865 0.032719094 -0.026043626
0.26313317 -0.21716623 0.059183538 0.10090434 0.08777924 0.06339909 0.15845206 0.115717284
0.084435806 0.17170998 0.17984304 -0.131597 -0.17241761 -0.21473181 0.20009826 0.65043604
0.017647637 -0.10666023 0.3385524 0.003151689 -0.09287144 -0.26089442 0.14425 0.1281728
-0.85856974 -0.021707611 -0.1140742 0.56670696 0.394265 0.06555047 0.024061592 -0.10300448
0.14470825 0.16650543 -0.20070726 -0.25683856 0.47233668 -0.14816438 0.040935725 0.007098265
-0.14649318 -0.12875016 1.1106143 0.07598091 -0.041715648 0.7067354 -0.033119347 0.0005657104
-0.27006108 0.09915843 0.07201275 0.18776876 -0.020148735 0.32768762 -0.1423546 0.07093291
-0.019677682 0.09761851 0.17898224 -0.006032359 -0.9506087 0.016556576 0.17394122 0.0048060846
0.13185437 0.10592357 0.2921533 -0.37453493 -0.053435627 0.19965968 0.09103009 -0.19391505
0.26990402 0.064614706 -0.0053366697 0.05087902 0.109439604 0.018583765 -0.004920023 -0.0065481775
-0.06624525 -0.09541166 -0.10091699 -0.056546606 0.25265926 -0.09745297 -0.13504203 -0.038059264
-0.27240264 0.06396433 0.15811747 0.009706714 -0.22412322 0.62510204 0.11573466 -0.42592505
0.36520883 0.25139284 -0.18517244 -0.32835922 0.034883898 0.00035893777 0.14053006 0.28861254
-0.20164375 -0.28918833 0.16373026 -0.09005171 -0.61726755 -0.08556417 0.07509661 0.13694362
0.33756575 0.32848284 -0.80178404 -0.28462777 0.2512374 -0.004562026 0.1600233 -0.068340726
-0.21969022 -0.3892029 0.28760478 1.208661 -1.0167644 0.19230637 0.29831204 -0.39783007
0.042696994 0.12948276 -0.27957755 0.111765385 0.30175877 0.22241387 -0.19062923 0.20755924
0.13225666 0.096376695 -0.06430874 0.20643559 0.030916326 -0.41396326 0.23779072 -0.17697985
-0.3360237 0.40120825 0.00914047 -0.0014324386 -0.098667696 -0.043961275 -0.053183395 -0.0788739
-0.0608981 -0.073785946 -0.095888436 0.4069405 -0.15722713 -0.14937988 0.7036775 -0.6587728
0.16648044 0.10588448 -0.6164558 0.07968683 -0.14097832 0.028870368 0.07495178 -0.67884856
0.8670601 -0.24209183 -0.27195558 0.27721378 -0.15190876 0.2738371 -0.3042241 -0.12850083
0.06463093 -0.20285611 -0.07200945 0.023817105 -0.2985485 0.17061199 -0.011299195 0.030961627
-0.13827029 0.6009106 -1.0581305 0.1537786 0.15428858 -0.62386 0.5087465 0.12534273
-0.10222646 0.12349004 0.01881097 -0.40073746 0.028455364 -0.029586619 -0.11908413 0.24602035
0.17832279 0.010663553 0.13960844 -0.051158212 0.22062302 0.063518375 -0.010812789 0.0383804
-0.09032033 -0.1378559 -0.059588153 0.04226172 0.13985147 0.4130972 0.45510128 0.016884666
0.15478837 -0.036182795 0.019729335 0.051998775 -0.03437704 0.05316941 0.040953614 -0.03559992
0.0166511 0.010702956 -0.020075224 -0.3483634 0.09735714 0.09512677 0.47703522 0.49691838
0.19966127 0.30532566 -0.00556795 -0.45135334 0.49704146 0.21415526 0.14134926 0.23923945

block1.0.branch5_conv.weight f4 [2, 2, 5, 5]
00000000: 9b87 233d f75a 143d d374 2d3d 7468 da3d
00000010: 9d5f a73d 027b c5bb c2ff 643b 6a0f 3b3d
00000020: 0662 bc3d 5367 c53d d981 aebc e558 37bd
00000030: 3068 3c3b 7a98 7f3d 4f79 4a3d 26f4 41bd
00000040: fc9d 44bd f030 c7bc 4a2e 7d3d ede7 683d
00000050: e6f6 05bb 149b 8ebd f3b2 0bbd 50fe cc3c
00000060: ce64 7a3d c6d7 babc ea72 b4bc 5e17 12bd
00000070: 8eb3 17bd eb13 8339 28ac 9cbc 8ffe fbbb
00000080: 1f9a 3e3c fe54 4bbd c032 7d3c 9325 20bd
00000090: 6446 82bc 0f9f 02bd 80ae 5bbd 3d0d f3bc
000000a0: 537d b0bd 2f36 91bd f0bb 1ebd 759b cfbc
000000b0: d675 f23c 1346 e2bb 836d 88ba 241c 903b
000000c0: 32fc 413d 8801 193d e584 3c3c a65b ac3c
000000d0: 557c 0bbb 0326 123d 166c e9bc 8a34 8ebd
000000e0: fb7a e6bc 2b4b 04bd 6294 e5bb a79a 23bd
000000f0: d5bc 0cbd 907b 7ebd cd69 61bd cae0 aa3b
00000100: cba7 623b 6efb c9bd 4317 c5bd c47c d1bd
00000110: d4bc a8bd 0171 a4bd cc0d 00bd 6d2f 7bbd
00000120: 2015 b2bd f232 c6bd 898a a2bd ab92 29bd
00000130: 54f2 8bbd 9bcc 953b f373 243d 8f9e 34bc
00000140: ad18 2fbd 9c5d 4abc 347d 20ba 9eb0 aa3c
00000150: febe b33b 02f9 303c 0d24 643c 669c 963d
00000160: d0cc 063d 7482 ee3c 29b9 94bd 4957 ddbd
00000170: 4984 fdbb 7505 83bc 6e83 e3bc a3e3 aebd
00000180: c28b 95bd 85d2 7f3d 0990 afbc 8e75 70bc
0.039924245 0.036219563 0.04234774 0.10664454 0.08172534 -0.0060266266 0.0034942483 0.045668997
0.09198384 0.09638848 -0.02130215 -0.04476251 0.0028748624 0.062401272 0.049432095 -0.04735198
-0.04800223 -0.024315327 0.061811723 0.056861807 -0.0020441352 -0.069631726 -0.034106206 0.02502361
0.06113129 -0.022807967 -0.022027452 -0.035666816 -0.03703647 0.00025001107 -0.01912506 -0.007690258
0.011633425 -0.0496416 0.015453994 -0.039098334 -0.015902705 -0.03188997 -0.053633213 -0.029669398
-0.08617654 -0.07090413 -0.03875345 -0.025342682 0.029597204 -0.006905326 -0.0010408614 0.004397886
0.047359653 0.037354976 0.011506294 0.021039795 -0.0021283824 0.035680782 -0.028493922 -0.06943615
-0.028134814 -0.03229825 -0.007006214 -0.03994241 -0.03435977 -0.062129557 -0.05503254 0.005214785
0.0034584876 -0.098624095 -0.096235774 -0.10228875 -0.08239141 -0.08029366 -0.031263158 -0.061324526
-0.086954355 -0.09677686 -0.0793658 -0.04139964 -0.0683333 0.00457151 0.04014964 -0.011024131
-0.042748142 -0.01235142 -0.00061221723 0.02083617 0.0054854145 0.010801556 0.013924611 0.073540494
0.03291017 0.02911494 -0.07261879 -0.10807664 -0.007736717 -0.015993813 -0.027772631 -0.08539512
-0.07302047 0.062456626 -0.021430986 -0.014676465

block1.0.maxpool_conv.weight f4 [2, 16, 1, 1]
00000000: 458e 4cbf 9416 ffbc e522 173c a5c4 303e
00000010: 2123 32be 6581 2d3e 7f55 fcbe b5e4 6e3d
00000020: 1bd8 09bd e90f 93be cf7f 95bc 6e45 8fbd
00000030: 55b9 f0bd 6d7c 7bbf 4cc8 81bd 1d91 cfbf
00000040: 49c6 ec3c 5689 4cbd 9e47 1bbe 966d 273e
00000050: cc3a 3e3e 38d7 10bf c0a0 f03e ae31 02bd
00000060: afc4 33bb 363b 193f 6d9b abbc e229 78be
00000070: 275b 8b3d da8d 40bf 692a da3b 8723 5d3e
-0.79904586 -0.031138696 0.009224628 0.17262514 -0.17396213 0.16943891 -0.49283978 0.05832358
-0.03365336 -0.28723076 -0.01824942 -0.069956645 -0.11754099 -0.98236734 -0.06337032 -1.621616
0.028903143 -0.04993566 -0.15164039 0.16350397 0.18577117 -0.565784 0.46997643 -0.03178566
-0.0027430465 0.59855974 -0.020948136 -0.24234727 0.06804495 -0.7521645 0.0066578877 0.21595584

block1.0.bn1.weight f4 [4]
00000000: efa5 663f 2823 773f 6fcc a73f 3e91 963f
0.90096945 0.9653802 1.3109263 1.1763074

block1.0.bn1.bias f4 [4]
00000000: 7cd4 0f40 ab25 cf3f e110 213f ce53 0840
2.247344 1.618337 0.6291638 2.130115

block1.0.bn1.running_mean f4 [4]
00000000: 8651 04c0 9dbe cb40 1166 66c0 0e9a 7ebf
-2.0674758 6.367018 -3.5999796 -0.9945382

block1.0.bn1.running_var f4 [4]
00000000: 658d d540 4f8a d640 268c 0e41 0afb 3641
6.67351 6.7043834 8.909216 11.436289

block1.0.bn3_1.weight f4 [8]
00000000: 179a 533f 458e 5d3f 4135 d83c c1ae 833f
00000010: 3844 42bf 91cb 1c3f d0ab 443f c1d0 903f
0.82657 0.8654521 0.026392581 1.0287706 -0.75885344 0.6124812 0.76824665 1.1313707

block1.0.bn3_1.bias f4 [8]
00000000: d3d4 87be 8b0d 53bc 1ba9 0bbe fe3f f13e
00000010: 89c0 c73e 3abb 083f bf5a 4b3f 1960 10be
-0.2652956 -0.012881647 -0.13638727 0.47119135 0.3901408 0.53410685 0.7943534 -0.14099158

block1.0.bn3_1.running_mean f4 [8]
00000000: 2031 b63f 82b1 a8c0 470d 5f3e 4f7c b7be
00000010: c374 8a3f 6bad 6340 c4f4 62c0 6818 2dc0
1.4233742 -5.2716684 0.21782409 -0.35837027 1.0816883 3.5574596 -3.5461893 -2.7046146

block1.0.bn3_1.running_var f4 [8]
00000000: 70a9 d93f d8d0 ac3f 7bfa 2d3c 3e81 3140
00000010: b232 0040 b969 ae3f ec96 1140 2924 4a40
1.7004833 1.3501234 0.010618801 2.7735133 2.0030942 1.3626014 2.2748365 3.158457

block1.0.bn3_2.weight f4 [8]
00000000: 1adf 143f e747 063f 9bef 233f 36a8 1dbf
00000010: e3f3 503f 4e3b 2ebf 1d0e 47bf 249f 4c3f
0.58152926 0.52453464 0.64037484 -0.61584795 0.8162214 -0.6805924 -0.7775591 0.7993033

block1.0.bn3_2.bias f4 [8]
00000000: 742d 743f 599e 7f3f 80d9 91bc 4bfc a03e
00000010: b9d2 9d3e 7f8e 27be ce33 55be fdad a9bb
0.95381856 0.99850994 -0.017803907 0.31442484 0.3082483 -0.16362952 -0.20820543 -0.0051782117

block1.0.bn3_2.running_mean f4 [8]
00000000: 4353 0040 658f 59be 19d4 50bf 6ec8 953f
00000010: 5f35 05c0 4bcc 0abe 8336 183f ec82 cabe
2.005082 -0.21246107 -0.81573635 1.1701791 -2.0813825 -0.13554494 0.5945818 -0.3955301

block1.0.bn3_2.running_var f4 [8]
00000000: 496c 0740 d604 a63f e8a9 643f 37ff e33f
00000010: c50b 3740 ab08 dd3f 1401 9a3f d822 a23f
2.1159842 1.2970226 0.89321756 1.781226 2.8600934 1.726827 1.2031579 1.2666883

block1.0.bn5_1.weight f4 [2]
00000000: 434f 163e 6320 bd3c
0.14678673 0.023086732

block1.0.bn5_1.bias f4 [2]
00000000: c34c 87bd a155 12be
-0.06606438 -0.14290477

block1.0.bn5_1.running_mean f4 [2]
00000000: 3708 75bc 066a 473d
-0.014955572 0.048685096

block1.0.bn5_1.running_var f4 [2]
00000000: ecf2 e73d 7a86 833d
0.113256305 0.06422134

block1.0.bn5_2.weight f4 [2]
00000000: 9b3b 453e cca7 263c
0.19261019 0.010171842

block1.0.bn5_2.bias f4 [2]
00000000: 95b4 b9bd 5b06 cebc
-0.090676464 -0.025149515

block1.0.bn5_2.running_mean f4 [2]
00000000: 66be 393c de8b d1bc
0.011336898 -0.02557939

block1.0.bn5_2.running_var f4 [2]
00000000: 2c26 153a c642 9c3a
0.0005689587 0.0011921756

block1.0.bn_max.weight f4 [2]
00000000: 6069 f43e 99a5 c73e
0.47736645 0.38993528

block1.0.bn_max.bias f4 [2]
00000000: 2cc8 c83f 2821 323f
1.5686088 0.6958184

block1.0.bn_max.running_mean f4 [2]
00000000: 5779 0bc1 cb2f 80be
-8.717124 -0.25036463

block1.0.bn_max.running_var f4 [2]
00000000: 64d3 3040 eb4e 553f
2.7629023 0.83323544

block1.1.conv1.weight f4 [4, 16, 1, 1]
00000000: 7b2f a6bf 9605 773f 41c1 953e 124d b4bf
00000010: e96e 5e3f 2955 3cbf a127 c1be e51e 58be
00000020: 38cc 92be 50e6 85bd ef35 f13d cc74 fb3e
00000030: 6898 bfbc a5df 93bc b293 31bf 3caa d2be
00000040: 2de4 9bbe 95b7 fabe e012 bfbf 4825 833f
00000050: 3394 64be a211 2cbf 810c 013f 41f0 25bf
00000060: 9fc1 17bf d9e8 77be d831 99bc ff6a 3f3e
00000070: eb1d 9abd 8f81 2d3d 68d5 bcbe 713a efbb
00000080: 308f c0be 4de9 eebf b8b0 e5be 54f9 7dbf
00000090: 4ded bbbd 4c7a 0dbf 4498 dd3e c5ff 1c3f
000000a0: 0be1 f53e f95d 883e f037 7bbe ea38 5ebd
000000b0: 4b66 a0bc 2e8b 8d3d 8bdb 173f 7979 043e
000000c0: b3ad 843f 292e 99be 398a 333f 497c c9bf
000000d0: 847f 8cbe cf14 a8bc c2f8 95be f89b 17ba
000000e0: 00ff 83bd 99fb e13e 15b4 92be cf84 bb3e
000000f0: 7d7e b2bc 5e68 653d 8be7 4b3e 2a5c be3d
-1.298324 0.964929 0.29249004 -1.408602 0.86887985 -0.73567444 -0.37725547 -0.21105535
-0.28671432 -0.06538069 0.11777865 0.49112546 -0.023388103 -0.018050978 -0.6936599 -0.41145504
-0.30447522 -0.48968187 -1.4927635 1.0245752 -0.22322159 -0.67214406 0.50409704 -0.64819723
-0.5927982 -0.24209918 -0.018700525 0.1869316 -0.07525238 0.042359885 -0.36881566 -0.007300668
-0.37609243 -1.8664948 -0.44861388 -0.9920857 -0.09176121 -0.55264735 0.43280232 0.61327773
0.48023257 0.26634195 -0.24533057 -0.054253496 -0.019580027 0.06911312 0.5931937 0.12936963
1.0365509 -0.2991803 0.70132786 -1.5741054 -0.27441037 -0.020517735 -0.2929135 -0.0005783434
-0.06445122 0.44137266 -0.28653017 0.36624762 -0.02178883 0.056007735 0.19912545 0.09294923

block1.1.conv3.weight f4 [8, 16, 1, 1]
00000000: a747 2fbf d698 61be bcf5 043e 474e 413e
00000010: 9f58 083f 5663 dd3d b875 77be 56ac 42be
00000020: 7829 843f 82a3 9f3e 5177 da3e 3e70 12be
00000030: 43e4 4c3e 8529 c63d ad40 263f e156 013d
00000040: e311 3abd 9eeb a5bd 72d0 25bb d7f8 90bd
00000050: e3c0 793d 6f06 13bd c70f 65bc 68ad 943c
00000060: 72c2 5e3d 839f 8c3d 99a4 75bc 6979 bcbd
00000070: f77f a6bd bd4e 3abd 04ca 02bc 2971 a6bd
00000080: b332 65be cc50 3d3e b230 d3bd a1aa 223f
00000090: 7f64 cd3e 70e6 843d cf14 3ebd bb49 25bf
000000a0: 1eb3 e93e 31c9 e6bc bdb7 0bbf 28d3 08be
000000b0: b912 253e 5ded 30bc 41ea 583f 39ed 773d
000000c0: c414 cebf 408f c0be 7e0c f93e 4a09 183f
000000d0: 3a6c 4abf 7dd0 60be 23df b0be 33a6 143e
000000e0: 9d17 db3b ace2 483e 5375 0f3f e591 f9be
000000f0: 7e04 9bbd b38f 76bd 4185 9d3e 6315 64be
00000100: 98a4 db3e 37e6 00be 3206 943e a86c 1c3f
00000110: fc8c ecbe d7d9 d6be e532 26be c3ba 483e
00000120: d9ca 9e3d c5a6 af3e 5c86 30be ae6c 003e
00000130: 4c78 1bbe 6ef3 173d 9e2c 08be 38f4 45be
00000140: 34ee ac3e 996f 65bf b397 403f 772a 9a3d
00000150: e70e 9a3e c1b7 afbe 7064 f53c 9df6 11be
00000160: 18ec 153f 0956 e73e 6d84 93bd e710 973c
00000170: a8de adbc c531 4d3d 3273 8cbe 8f59 dd3e
00000180: f5de bbbe 7118 953e bee6 233f f281 ec3e
00000190: e25e e7bd 3c4f 98bd 9051 1a3e 373a 653e
000001a0: 813e c23c 20d8 993e 63a6 1c3f 4f37 a7be
000001b0: 416d 66ba 51af 003d 5727 1e3e c133 0cbf
000001c0: 44f5 ccbc ad61 f9ba 7cc6 d3bc edcb 073c
000001d0: 2478 d93d 1568 1cbd 081b bdbb 37ac 6a3d
000001e0: e37e c1bd 8c9b 853d abf3 3d3c 75a8 423d
000001f0: 511a be3c 54a7 2e3d 6fa9 853c 470a b0bd
-0.6846871 -0.22030959 0.12984365 0.18877517 0.53260225 0.108099625 -0.24166 -0.19011053
1.0325155 0.31179434 0.42669156 -0.1430063 0.2000895 0.09675888 0.6494244 0.031576995
-0.045427214 -0.08101581 -0.0025301245 -0.070787124 0.060974967 -0.035894807 -0.013980812 0.018149093
0.054384656 0.06866362 -0.014992856 -0.09202845 -0.08129876 -0.045485247 -0.007982735 -0.08127052
-0.22382621 0.18487853 -0.10312022 0.6354161 0.40115735 0.06489265 -0.046406563 -0.6456563
0.45644468 -0.028172107 -0.5457724 -0.133618 0.16120423 -0.010798779 0.84732443 0.060528968
-1.6100087 -0.3760929 0.48642343 0.59389174 -0.7907139 -0.21954532 -0.3454524 0.14516525
0.0066861645 0.19617718 0.560384 -0.4874412 -0.07569216 -0.060195636 0.30765727 -0.22273783
0.42899013 -0.1258782 0.28910977 0.61103296 -0.46201313 -0.41963074 -0.16230352 0.19602494
0.07753534 0.34306923 -0.17238754 0.12541458 -0.15182608 0.037097387 -0.1329827 -0.19331443
0.33775485 -0.8962341 0.75231475 0.07527631 0.30089495 -0.3431988 0.029955119 -0.14254232
0.58563375 0.45182827 -0.072029926 0.018440677 -0.021224335 0.050096292 -0.27431637 0.4323239
-0.3669354 0.2912021 0.6402396 0.4619289 -0.11297394 -0.07436988 0.15070176 0.22385488
0.023711445 0.30047703 0.61191386 -0.32659385 -0.0008790084 0.031417195 0.15444694 -0.5476647
-0.025019296 -0.0019026302 -0.02585148 0.008288366 0.10618618 -0.038185198 -0.0057710446 0.057293143
-0.0944803 0.06523809 0.0115937395 0.047523934 0.023205908 0.042640045 0.016316144 -0.0859571

block1.1.conv5.weight f4 [2, 16, 1, 1]
00000000: 601d 853e 370c e1be 4d1c 613e b606 69bd
00000010: 9af0 c3be 07b1 af3e 99f0 b43c ae85 df3e
00000020: b242 5f3e f0ec 483e 0d4a 1e3e 50e2 2b3e
00000030: 7166 88bd 0e1c e1bd 702e 3c3f 3c40 a13e
00000040: 96e1 963c 157e 563d d0e6 5ebd 55ed 0f3c
00000050: 1cae 8fbd ab73 06be f237 ce3c 263a 7a3c
00000060: 8aee 8f3d e772 4abd d5dc 82bd 5e7e 9ebd
00000070: 6da0 be3d 9c6d be39 d2e8 753d 0a27 87bd
0.25998974 -0.43954632 0.21983452 -0.056891166 -0.38269502 0.3431475 0.022087382 0.43656677
0.21802786 0.19621634 0.15457936 0.1678555 -0.06660164 -0.10991679 0.7350836 0.3149432
0.018418115 0.052366335 -0.05441934 0.008784612 -0.070156306 -0.13130061 0.025173161 0.015272653
0.070279196 -0.049425986 -0.063897766 -0.077389464 0.093079425 0.0003632129 0.060036488 -0.06599243

block1.1.branch3_conv.weight f4 [8, 8, 3, 3]
00000000: 3728 8b3d bc3f 463c 3a6b fb3c bca1 623d
00000010: 8fbd 92bc 6d8e 0abc a788 f0bc 13bc f2ba
00000020: d1f8 eabc e593 7f3a d8ba 22bd f753 023d
00000030: 698d ebbc 4efb c23c d74e 553d 6890 da3b
00000040: b254 a1bc 8fb5 9d3c c8a0 c43c c342 523d
00000050: a13c e13d 0e35 a83c 41f7 3e3d 610e 143e
00000060: 55d7 803b 3350 e53b eb5f e93d f27c f13c
00000070: c5d5 053d 2b00 6f3d 27e0 793d 1127 cc3b
00000080: 3932 ce3c 9112 22bc 2b30 fc3b 6615 763b
00000090: 290f 0c3d 6e9f c73c 0fd3 0e3b 33a3 993c
000000a0: 2c6f 753d b114 40bb de3a a73c b6d8 9e3d
000000b0: 9761 fb3c d576 603d 0a04 cf3c 7849 473d
000000c0: f83e b33d 7153 a93c d12a 083d 370e a13d
000000d0: dba5 d33c e6b8 5d3d 8a1c 6cbc cbdd 81bc
000000e0: d34c 393c 2960 963a a221 97bc 2137 97bb
000000f0: fb5c 9abc e23d ee3c ffb4 733d 337d 51bc
00000100: 6b5e 5fbd 41cb f3bc ed1a 0cbd 5f7b 5bbd
00000110: 8b4d 67bd 25ea f9bc 3d68 4bbd d624 1cbd
00000120: c12e 75bd 9627 6d3e ce4b 4c3e 1a16 693d
00000130: c69c 2a3e a3c5 3b3e c439 193e 1e66 f7bd
00000140: c1a2 a3be c6eb 00bd 396e 00bd ae12 20bc
00000150: bb69 bcbb 9e2c 32bd 0bf2 213c b654 25bd
00000160: 5323 7a3b ba48 00bd 36ed 203d 69f2 4d3e
00000170: 7a3f a03d 87e7 02be 603a 0d3f e653 8b3d
00000180: 2000 00be c572 79be ad87 14bf 3453 a53d
00000190: 05b8 21be 25c2 b5bd 023d 0cbe 1758 8bbf
000001a0: 5c21 c53d 7bff b33e f260 83be c246 dc3e
000001b0: e8e6 c2be a16a 23be f33b 6fbe a785 84be
000001c0: bad6 f83e 9eb1 e93c 84ac 98bd 56d7 3f3d
000001d0: 39c0 12bd c97f b4be eb9e 553b 6535 993c
000001e0: 0d7c 6ebd 4f3e 283f 6cec 623d 9da2 903e
000001f0: 88eb 9bbe 6b11 90be f744 a5bd a5b4 ed3b
00000200: d8a0 fbbd dc3e 68be 3ea2 c33d 4755 7abe
00000210: db6f 93be b7c1 8abd 9cde 4cbe ea0a 7a3b
00000220: fa73 abbb 200b 82bc 2543 0cbd 5b37 0c3b
00000230: 2311 953b 8503 923b ebfa 833c fb68 993c
00000240: c96d e2bb 879a f4bd 7e8a db3c 92de 80be
00000250: 4349 293d 9b7a a2bd 8064 2dbe 7260 c6be
00000260: e533 043e afae d4bc 09bd aa3c c937 693d
00000270: ee41 8abc e33a 70bd fa4f 1f3d 2a29 eebc
00000280: d7f4 5d3c 267f fe3c b1b2 7e3e 01a1 acbe
00000290: 5a34 cabc 0a60 bb3c aa8e 71be 1adb a9bd
000002a0: faf7 e63d fbdf 6a3e 5d8d 343d e8a0 c5bc
000002b0: 7722 9cbc 3383 36be f127 28bf 0024 8dbe
000002c0: 03aa ddbe 35e0 18be 444f 3cbf c468 2fbe
000002d0: 2497 583d e23f 603e 989d 1dbd 27ee 203e
000002e0: 9d4a 28be b243 7dbd 0cd8 bb3d 5c31 5f3e
000002f0: e5e2 85be 6aab 863e 09b4 b13e 8057 42be
00000300: ee1a c13d a9cf a6bd 9103 053e 0781 fabd
00000310: add9 ee3e 2399 813e 7796 c13c cf56 4abe
00000320: b3ad 5bbe f5f6 693d cde9 c8be c113 0a3e
00000330: 3cc1 b83c 2419 413e 39f1 9a3d fa20 273b
00000340: e5f6 05bc ef1e 5fbd 20a9 4c3c 009c f03b
00000350: 591b 61bd bbd2 1e3d 5881 6e3c 380f e7bc
00000360: be34 39be bd2e 6cbd be5e b7bd 3a9b 6e3d
00000370: 67d6 883f 1268 61be 0a7a 0d3f 6fdb 2b3d
00000380: f870 6ebe d619 133c c960 5dbc a66a c23b
00000390: 2e66 223d 85ce b9bb 41d5 0bbd 5d6b 2a3d
000003a0: d696 133d 8e1e 93bc 84c1 b5be 0c7c 1a3f
000003b0: 87ac a13e 59e9 c2be 05a3 82be 3eea ca3e
000003c0: a22e c8bc 4d7e 993d 4706 c8bd 5a73 05be
000003d0: 9d67 aebe 05a0 95bc 0b8a fa3d 6ac0 d63f
000003e0: 8cdf 9dbe adf2 52be 7877 b63e 1b05 b5bd
000003f0: ef1f 753e 90b3 15be b14d 06bd d78a 5e3e
0.0679478 0.012100156 0.030690778 0.055330023 -0.017912654 -0.0084568085 -0.029362036 -0.0018519185
-0.028683098 0.0009749516 -0.03972897 0.031818356 -0.028753953 0.023801472 0.05207714 0.0066700466
-0.019693706 0.019251613 0.024002448 0.0513332 0.10997892 0.020533111 0.04662252 0.1445861
0.0039319196 0.006998086 0.11395248 0.029478524 0.03267457 0.05834977 0.061004784 0.006230243
0.025170432 -0.009892122 0.0076961718 0.0037549376 0.034194145 0.024368014 0.0021793281 0.018754577
0.059920475 -0.0029309208 0.020413812 0.07756178 0.030686183 0.054800827 0.02527048 0.04865405
0.08752245 0.02066967 0.033243958 0.078640394 0.025835922 0.05413141 -0.014411101 -0.01585283
0.01130982 0.001147275 -0.018448655 -0.004614726 -0.018843165 0.029082242 0.059498783 -0.0127861975
-0.054533403 -0.029760005 -0.034205366 -0.053584453 -0.056470435 -0.030507157 -0.049659956 -0.038121067
-0.05985904 0.23159632 0.19950792 0.056905843 0.16661367 0.18337111 0.14963442 -0.12080024
-0.3196011 -0.03147485 -0.031355117 -0.009770079 -0.0057499087 -0.04349958 0.009884368 -0.04036399
0.0038168028 -0.031319357 0.039288722 0.20112003 0.07824607 -0.12783633 0.551672 0.06803112
-0.12500048 -0.24360187 -0.58019525 0.0807251 -0.15792854 -0.08874921 -0.13695148 -1.0886258
0.096255034 0.35155854 -0.256599 0.43022734 -0.38066792 -0.15958644 -0.23362713 -0.2588322
0.48601323 0.028527077 -0.0745478 0.04683622 -0.03582785 -0.35253742 0.0032595943 0.018702218
-0.058223773 0.65720075 0.05540125 0.28249064 -0.30453134 -0.2813829 -0.080697946 0.0072542005
-0.12286538 -0.22680229 0.095524296 -0.24446593 -0.28796276 -0.067752294 -0.20006794 0.0038153478
-0.0052323313 -0.015874445 -0.03424372 0.00213953 0.004549162 0.004455986 0.016110858 0.018726816
-0.00691006 -0.11943536 0.026799437 -0.25169808 0.041329633 -0.079335414 -0.16932869 -0.38745457
0.12910421 -0.025962202 0.020842092 0.056937966 -0.01687714 -0.05864991 0.03889463 -0.029072363
0.013547144 0.031066488 0.24872853 -0.33716586 -0.024683166 0.022872943 -0.23589578 -0.082937434
0.112777665 0.22937004 0.044080127 -0.024124578 -0.019059403 -0.17823486 -0.65685946 -0.27566528
-0.4329377 -0.14929278 -0.7355845 -0.17129809 0.052878514 0.2189937 -0.03848037 0.15715848
-0.16434713 -0.061832137 0.09172067 0.21796173 -0.2614967 0.26302654 0.34707668 -0.18978691
0.094289646 -0.08145077 0.12989642 -0.12231641 0.46650448 0.25312147 0.023631318 -0.19759677
-0.2145298 0.057120282 -0.39240876 0.13484098 0.022553079 0.18857247 0.07565541 0.0025501833
-0.00817654 -0.05447286 0.012491494 0.0073428154 -0.05495772 0.038775187 0.014557205 -0.028205499
-0.18086526 -0.05766176 -0.089536175 0.058253504 1.069043 -0.22012356 0.5526434 0.041957315
-0.23285282 0.008978328 -0.013511845 0.0059331236 0.039648227 -0.005670371 -0.03413892 0.041606296
0.03603252 -0.017958906 -0.35499203 0.6034553 0.3157694 -0.38068655 -0.25515 0.39631838
-0.024436299 0.07494793 -0.09766822 -0.13032284 -0.34063426 -0.01826478 0.12233361 1.677747
-0.30834615 -0.20600386 0.35638022 -0.088388644 0.23937963 -0.14619279 -0.032788936 0.2173265

block1.1.branch5_conv.weight f4 [2, 2, 5, 5]
00000000: f680 853d 1fbe 4e3e d035 bc3e 596a d73d
00000010: 3f1d aebd 184b ebbc 6118 dc3c e0ea 483c
00000020: f2c8 7a3e 78ae fb3d 1164 c43e 57ca bbbc
00000030: 616d a7bf 5774 d73d 133f 903e 7071 113e
00000040: 46f8 a3bd 0f0c 1dbe 8b01 4a3e 6d24 8a3e
00000050: fe0f 30be f53e 9e3c 30dc b63d d725 f6bb
00000060: be88 233e 2d07 033d dd18 443d fc2c 0c3c
00000070: 1bf1 bb3a 14a9 cfbc 342c c33d 3639 ad3c
00000080: 3d58 733d 292f e5bc 69ad 6bbb 66e2 a43a
00000090: 2070 2abc fa01 4e3c 2d64 d8bc c116 2abd
000000a0: 450b adbc 22f5 5fbd 7510 1ebc e699 393c
000000b0: 3ec3 8a3c f712 7abc 60a2 f3bc e4e1 b6bc
000000c0: 5b4a 793b b746 3f3d 136b 18bd fb74 053d
000000d0: 91af 9b3d c87c 733d c58d 31bb 168e 7cbc
000000e0: 44f0 90bd d132 0e3d 580c 673d b933 dc3b
000000f0: f8b4 cb3b ddd1 69bc 2fbb 6f3d cd24 e53d
00000100: 65b8 243d ab37 83bc 69db 6c3c 6504 7a3c
00000110: b4cc 703d dfb6 0e3d ea95 903c 006d 913d
00000120: 53ae 643d 4e5f f73c fe8d 173d f9f3 29bc
00000130: d8fa d33a d5e7 f13c e0a2 27bd 083a 43bc
00000140: d5d7 f53b 58ef 333d 8782 873d ca31 cd3c
00000150: 7543 2d3d 529b 093d ffdf cb3c 3cc8 27bc
00000160: 8c79 b93c af73 7d3c bf1c 70bc feaf aabc
00000170: 9513 32ba e57f 07bd 4b2c 9d3c c16e 8ebc
00000180: 6436 253d a936 0c3d 6056 f63b 3149 e53c
0.06518738 0.20189713 0.36759806 0.10518331 -0.08501672 -0.02872233 0.026867094 0.01226303
0.24490717 0.12289137 0.38357595 -0.022923632 -1.3080255 0.10520237 0.28173122 0.14203429
-0.08006339 -0.15336631 0.19727151 0.26980916 -0.171936 0.01931713 0.08928716 -0.007511835
0.15970132 0.031989265 0.047875274 0.008555647 0.0014338823 -0.025349177 0.095299155 0.021145444
0.059410322 -0.02797659 -0.0035961515 0.0012579679 -0.010402709 0.012573713 -0.026414955 -0.041525606
-0.021123538 -0.054677136 -0.009647478 0.011328196 0.016938802 -0.015263311 -0.029740512 -0.02232451
0.0038038704 0.0466983 -0.03721149 0.032582264 0.07601846 0.059445173 -0.0027092558 -0.015414735
-0.07077077 0.03471643 0.056408256 0.006720033 0.0062166415 -0.014271227 0.05852812 0.1118866
0.040214915 -0.016017755 0.014456608 0.015259837 0.05878897 0.03484237 0.01764961 0.07100868
0.05583031 0.030196812 0.03700065 -0.010373109 0.001617278 0.029529491 -0.040926814 -0.011915691
0.007502536 0.043929428 0.06616693 0.025048155 0.04230066 0.03359539 0.024887083 -0.010240611
0.022640966 0.015469476 -0.014655291 -0.020835873 -0.0006793079 -0.033080954 0.01918616 -0.017386796
0.040335074 0.034231815 0.007517621 0.027989002

block1.1.maxpool_conv.weight f4 [2, 16, 1, 1]
00000000: f931 d13e 5243 c53d 45ef 3a3e 8be7 8cbe
00000010: 3813 e83e d4d6 813d b2af 1d3e ea17 793f
00000020: 205f 2f3d b3a3 8e3c a050 9ebd 82ff b73e
00000030: f773 06bc 7ee0 9d3c 2a59 a9bd 3adb 1abf
00000040: 4c26 25bf 8507 abbe c057 7bbe bfdd eebe
00000050: 0805 763e f44b f03d 6767 dc3e 2fd4 a3be
00000060: 8e6f dc3d 54f1 763d 7aca f6bd 64c4 cbbd
00000070: 975b edbd 9124 723d a25b 43bf 64f4 90be
0.4085844 0.09631981 0.18255337 -0.27520403 0.45327163 0.06339803 0.15399054 0.97302115
0.042815328 0.017412042 -0.07730222 0.35937124 -0.008206359 0.019272085 -0.0826896 -0.60490763
-0.6451156 -0.33404174 -0.24545193 -0.46653554 0.24025357 0.11733237 0.4304764 -0.3199782
0.10763465 0.060288742 -0.12050338 -0.09949568 -0.11589735 0.059116904 -0.76311696 -0.28311455

block1.1.bn1.weight f4 [4]
00000000: 93ba 893f 14df 493f a665 923f 631a 863f
1.0760063 0.78856015 1.1437271 1.0476803

block1.1.bn1.bias f4 [4]
00000000: 0964 bc3f 0aab 9a3f 9de5 f13f d56c 133e
1.4718028 1.2083447 1.8898197 0.14396985

block1.1.bn1.running_mean f4 [4]
00000000: d1b5 b0c0 c676 22c0 51ad adc0 0928 3fbf
-5.5221944 -2.5384994 -5.427407 -0.74670464

block1.1.bn1.running_var f4 [4]
00000000: 8104 d540 5b4d 7a40 197b 0541 15b2 3640
6.6568 3.9109714 8.342553 2.8546193

block1.1.bn3_1.weight f4 [8]
00000000: 74be 2f3f 149d 803c 374c 023f 7a1c 3f3f
00000010: a6f7 203f 3c95 363f 29d7 c73e efdf 3abb
0.68649983 0.0156999 0.50897545 0.74652827 0.6287788 0.71321464 0.39031342 -0.0028514822

block1.1.bn3_1.bias f4 [8]
00000000: 4ad9 2c3f ead6 26bd 1dfa 473f 62a6 9f3f
00000010: 74ad 033f 7812 a33e 469b f33e 95c7 4dbc
0.67519057 -0.0407323 0.7811602 1.2472651 0.51436543 0.31850028 0.47579402 -0.012559791

block1.1.bn3_1.running_mean f4 [8]
00000000: a144 473f d44f d9be fe9b 2940 8c1e 4cc0
00000010: a7ca 9f3f 5197 823e 2341 8a3f bb48 f5bc
0.77839094 -0.42443717 2.650146 -3.1893644 1.248372 0.2550607 1.0801128 -0.029941907

block1.1.bn3_1.running_var f4 [8]
00000000: 0563 913f 3a2c 443d ad97 733f bed5 cc3f
00000010: f5d6 783f 4626 703f 9f00 0b3f 3a5a 5a3c
1.1358343 0.04789374 0.95153314 1.6002729 0.97203 0.938084 0.5429782 0.013327176

block1.1.bn3_2.weight f4 [8]
00000000: e213 bf3c 14eb 173f 414e ef3e 7dc8 233f
00000010: 636a 123f 92c1 54bf 551a e53e edf6 3b3f
0.02332491 0.59343076 0.4673939 0.63977796 0.57193583 -0.83107865 0.44746652 0.73423654

block1.1.bn3_2.bias f4 [8]
00000000: ea76 07be 1429 a63e 70db 8e3f 2ae9 883f
00000010: ad1b fa3e edeb eebe 0322 413f ff2b 41be
-0.13228956 0.32453215 1.1160717 1.0696156 0.4884924 -0.46664372 0.7544252 -0.1886444

block1.1.bn3_2.running_mean f4 [8]
00000000: b447 813f 0277 b6bf 5f60 51c0 beb9 1f40
00000010: 269c 17c0 7b74 0440 8c9b 963f 92df 2d3f
1.0100007 -1.4255068 -3.271507 2.4957118 -2.3689055 2.0696094 1.1766219 0.67919266

block1.1.bn3_2.running_var f4 [8]
00000000: c234 d43d 49b7 943f 88fe 3640 23fa 1840
00000010: c1a6 fa3f 9fb7 903f c6a2 b53f 7359 3d3f
0.10361625 1.1618434 2.8592854 2.3902671 1.9582139 1.1306037 1.41903 0.73964614

block1.1.bn5_1.weight f4 [2]
00000000: fa77 fd3e 052e b83c
0.49505597 0.022482881

block1.1.bn5_1.bias f4 [2]
00000000: c62f ac3e ede2 a5bd
0.33630198 -0.08099923

block1.1.bn5_1.running_mean f4 [2]
00000000: 5f9b db3f 8af3 50bd
1.715679 -0.051013507

block1.1.bn5_1.running_var f4 [2]
00000000: 02e5 f93e b756 243c
0.48807532 0.01003044

block1.1.bn5_2.weight f4 [2]
00000000: 63d5 a23e 6c92 163c
0.31803426 0.009190183

block1.1.bn5_2.bias f4 [2]
00000000: 4916 343f 9f98 53bd
0.70346504 -0.051659223

block1.1.bn5_2.running_mean f4 [2]
00000000: d373 8c3e 2893 7d3e
0.27432117 0.24763167

block1.1.bn5_2.running_var f4 [2]
00000000: 54e4 593e 189b d23c
0.21278507 0.02570872

block1.1.bn_max.weight f4 [2]
00000000: 87c7 153f f59d 063f
0.5850758 0.52584773

block1.1.bn_max.bias f4 [2]
00000000: 3d41 b53d 22cd 5e3f
0.08850334 0.8703176

block1.1.bn_max.running_mean f4 [2]
00000000: 2da8 fc3f 67af b2c0
1.9738823 -5.5839114

block1.1.bn_max.running_var f4 [2]
00000000: 2c15 d93e bd39 bd3f
0.42398965 1.4783245

block1.2.conv1.weight f4 [4, 16, 1, 1]
00000000: 238a 553e c173 56be 9d2d e6bf 74b9 bb3e
00000010: c0ec b9bc 1a5a 103e 6092 753d 54ea 8fbf
00000020: b09e c43e c472 edbd b496 07bf 324b dabd
00000030: 33a5 503e 099a ecbb 2063 993e a57a c5be
00000040: bc05 53bd 1363 27bd 8f18 223d 1dc2 5ebd
00000050: 7537 d9bc e3b8 c3bc 7dd4 7abd 251b 95bc
00000060: 628e c5bc 4965 453d 82d3 56bc 8179 65bd
00000070: ecf6 2abb de99 013d 4fa8 9c3d 7dae 3b3d
00000080: 8d3d e1bf 4729 0bbf 9f0e 09bf 14f3 90be
00000090: 0305 5dbc 4212 903d 8e4d 1ebf 8c6d 153f
000000a0: 2e91 e03e 7495 38bc a580 453d 6ab1 b03e
000000b0: 45e0 19bf 48b1 4e3d 2ce7 e0be eec3 36be
000000c0: 11fc d1be 278f e33f 65e7 03bf 0ad9 8bbf
000000d0: 1ac2 10bd 97e9 75be 2f89 6fbd e9e0 b8be
000000e0: fe85 073a de45 47bf a38b 063d 73fb bd3d
000000f0: a1bd be3e 0461 7fbd b766 343d eaa5 383f
0.20853476 -0.20942594 -1.798267 0.36664927 -0.022695899 0.14096871 0.059954047 -1.1243386
0.3840232 -0.115941554 -0.5296433 -0.106588736 0.20375519 -0.007220511 0.2995844 -0.38570133
-0.05151914 -0.04086597 0.039574202 -0.05438434 -0.026515702 -0.023891872 -0.0612378 -0.01820142
-0.024115745 0.048192296 -0.013111951 -0.05602408 -0.0026087118 0.03164088 0.0764929 0.045820702
-1.7596909 -0.5435986 -0.53537935 -0.28310454 -0.013489964 0.070347324 -0.6183709 0.5837028
0.43860763 -0.011266101 0.048218388 0.34510356 -0.60107833 0.050462037 -0.4392637 -0.17848179
-0.41012624 1.7778062 -0.51524955 -1.092561 -0.03534136 -0.24014889 -0.058480438 -0.36109093
0.00051698077 -0.77840984 0.03284801 0.09276476 0.3725405 -0.06234838 0.04404327 0.72128165

block1.2.conv3.weight f4 [8, 16, 1, 1]
00000000: 313e 5b3e 66d0 5abe ce06 be3d 5e61 583f
00000010: 7103 70bd fbc3 82bd ad33 e43e 280f 403e
00000020: 8d56 80be d1f6 123e 6d82 c63e 0d6a b5bd
00000030: 780d 3c3e befe 30bd 4571 063e 8fa6 4c3e
00000040: c4ad 0abb 87ab 21be 258c 4c3f 066e ac3d
00000050: 451c 1bbd 438d 04be f086 d83e b034 fc3e
00000060: 3909 6f3d c8b2 4a3e 8cc0 803e f6b5 073e
00000070: 2fa0 0e3e eb56 823c 9d86 b4be 3c16 1abf
00000080: a8c0 1b3e 5321 743e 66e6 31bf 08dc a1bc
00000090: e117 8ebd db0e ad3d 2939 82be 6e69 33be
000000a0: 725a c63e 8072 a7bd 4a4a 8c3f 9b3f 4bbe
000000b0: 5426 edbd 247e 03bd 1a7e 39be 33fc 0b3e
000000c0: 949c 72bf ee07 ac3d 3df0 3a3f 122a db3e
000000d0: a84d 403c 180c 1c3e 4967 c03e e8ab 2a3b
000000e0: 496a acbe b74b 8e3e 95aa 5a3e e68f e2be
000000f0: ca36 c6be bda0 d4bc 56ed 4ebe e1eb 3b3e
00000100: f4e3 833f 53fd 20bf 9ebd 5cbf abd9 abbe
00000110: adc9 87bd 6236 e2be 84a8 dabe edb2 483f
00000120: 4077 49bf 4fb6 72be f2f6 733d 98d4 c33e
00000130: 7adc 553d c12e 3cbd 4b72 b0be 81ff 903e
00000140: 77f9 40bf 8d78 ecbe aa29 dabe 946a 0d3e
00000150: 1540 63bd 16cc d83d 2fb6 86be df06 5cbe
00000160: 5cbc 85bd cf1d 853e 3d89 953d 851d 4dbe
00000170: d707 9e3d cbdb f1bc a101 79be c9dc 6c3f
00000180: e5ab 55be fa28 243f bdd3 d5bd eeb2 fd3d
00000190: 8b8a 553c dfca 833e 4e9f 60be c1db d8bd
000001a0: cf95 babe 583e ce3e a7bd 24be 1693 33bd
000001b0: e51a 2c3e 8b05 1fbd 344e cebe 1909 5f3a
000001c0: 4e38 393f 4ff1 723e 1370 853f fcc1 ea3d
000001d0: df85 163c 8e96 873e 631f e53e 22f4 b7bc
000001e0: 567e 0b3f 447d 883e a681 21be 9992 81bc
000001f0: 1c2f 94be 6d3c b6bc 355c 1bbe 6a8c 233e
0.21410443 -0.2136856 0.09278642 0.8452357 -0.058597032 -0.063850366 0.44570675 0.18755782
-0.25066033 0.14351965 0.38771382 -0.08858118 0.18364513 -0.04321169 0.13129146 0.19985412
-0.0021160701 -0.15788089 0.79901344 0.08419423 -0.037868757 -0.12944512 0.4229045 0.49258947
0.058358405 0.19794762 0.25146902 0.13253006 0.13928293 0.015910586 -0.35258952 -0.60190177
0.15210211 0.23840837 -0.69492185 -0.01975824 -0.06938148 0.08450099 -0.25434235 -0.17520687
0.3874088 -0.08176136 1.0960171 -0.19848482 -0.11579576 -0.03210272 -0.1811451 0.13670425
-0.9477017 0.0839995 0.73022825 0.42805535 0.011737265 0.15238988 0.375788 0.0026042406
-0.3367484 0.2779214 0.21354134 -0.4425041 -0.38713676 -0.025955552 -0.20207724 0.183517
1.0303941 -0.6288654 -0.8622683 -0.33564505 -0.066302635 -0.44182116 -0.42706692 0.7839802
-0.78697586 -0.23702358 0.059561677 0.38248134 0.052212216 -0.045943025 -0.344622 0.28319934
-0.75380653 -0.46185723 -0.42609912 0.13810188 -0.055481035 0.10585801 -0.2631087 -0.21486996
-0.06530067 0.25999305 0.07301567 -0.20030792 0.07716339 -0.02952375 -0.24317028 0.9252439
-0.20866354 0.64125025 -0.104407765 0.12387644 0.0130335195 0.25740716 -0.2193577 -0.1058879
-0.3644242 0.4028194 -0.16087972 -0.043841444 0.16807134 -0.038823646 -0.4029404 0.00085081306
0.7235154 0.23724864 1.0424827 0.11462781 0.009187191 0.26482052 0.4475051 -0.022455279
0.5448965 0.2665807 -0.15772113 -0.015816974 -0.28942192 -0.02224561 -0.15171893 0.15971532

block1.2.conv5.weight f4 [2, 16, 1, 1]
00000000: 874b 8eb8 9095 073e 7819 ac3d b7c7 d13c
00000010: 4119 253c 4de2 443f 5008 fc3d 2542 a03d
00000020: b969 1fbe 55b9 b2bd ee2a c33e 1ad6 7b3f
00000030: 4b75 4cbd b9e7 cfbc bcbe d83e 5e07 7f3e
00000040: 0bb2 05bf d79d b63c b23a 7c3d 9c38 fabe
00000050: 6497 033d fe1c e4be 5311 07bf 1b7b 973e
00000060: e171 19be 4ded 27be 68c5 cfbe a33e eebd
00000070: 4916 b1be 062c 0b3c 06d8 37be f3c5 ad3b
-6.785156e-05 0.13240647 0.08403295 0.025607927 0.010076822 0.7690781 0.12306273 0.07825116
-0.15567674 -0.087267555 0.3811869 0.9837357 -0.049916547 -0.025379049 0.4233302 0.24905154
-0.52224797 0.02229206 0.061579414 -0.48871315 0.0321268 -0.4455337 -0.5276081 0.2958611
-0.14984848 -0.16399117 -0.40580297 -0.11633041 -0.34587315 0.008494383 -0.179535 0.0053031384

block1.2.branch3_conv.weight f4 [8, 8, 3, 3]
00000000: fe79 163e 9945 eebd 1382 81be 0976 7b3e
00000010: 7d8b ae3e 7fe4 3bbe 5c32 033e e21b 4a3b
00000020: 6b85 1dbe 9efe 8b3e 85c9 743d c477 62be
00000030: 9310 be3d 722e 373e 9928 88be 4321 033e
00000040: dd20 30bb 4d5b 993d 54c9 4d3e 39c1 1dbe
00000050: b65b 9ebc aa2f 80be ba18 0fbf d429 84be
00000060: 52fe 7ebe f3b2 713e 4790 a43e c831 8cbd
00000070: 484a 9dbc acae bcbc fe99 b1bd 97ba 0d3f
00000080: fe01 663e 6f3f 8b3e da89 cc3e 3725 25bc
00000090: d0fd f73d 86a6 50bd d1d8 2f3e 0a01 883e
000000a0: d9fe 57bf c79e 8fbe 78b8 d3bd ba8e 6cbe
000000b0: 98d3 f43c 93bb acbd d2d5 37bd 4424 79bd
000000c0: bc7d 90be f09c 9dbe 70e9 1c3e 05dc 53bd
000000d0: 85d7 b33d f2ae 883d da2e 403e a209 4a3d
000000e0: 9ab1 213d c9b6 f63d d331 1fbe 44d3 90be
000000f0: b830 a93d 874d 323e 1199 01bd ddd8 4bbd
00000100: aeb1 78bd d61d 01bf f513 f13d 3ce0 533f
00000110: 5231 833e 1a14 41b8 4e63 8bbe 008c d53d
00000120: 805a c8bd d04e 5fbe 3349 6bbc d977 7b3e
00000130: 374f 4d3e 0ffd 3d3e 9a13 183d bd42 863d
00000140: 8700 aabd e62f 0dbe 213e 69be 5cf5 503e
00000150: 4356 e5bd 9719 703e 5f93 90be c2b9 d53c
00000160: c5fb 163e cdd5 78be a79e 9fbe bc89 3ebd
00000170: 5d78 9a3d f1d0 bdbc 02de 03bf 4f61 6bbe
00000180: cd1f 2cbd 41bb 713e 89b2 23bd 9991 d43c
00000190: 0805 10bf 9ee7 f4be 7d37 aa3e 7814 c73d
000001a0: 90d8 98bd 1de5 c03d 8bcd a93e a185 f13e
000001b0: 993c 2cbe 7776 0c3f 8998 3dbd e1e9 d8be
000001c0: 5fd9 893f ed18 773f 977a 9ebd f237 dcbd
000001d0: 8c8e 463d b4de 253e 6307 8cbe bbd5 73be
000001e0: de61 523e 2509 c7be c02d 80be 6e6a bb3d
000001f0: e3df f23e bc42 2f3e 3872 a3be 8263 c7bd
00000200: 420c 64bd 8a40 91bd d0a6 34be e134 433e
00000210: a038 be3c fa11 543e 9448 5d3e 8344 723e
00000220: bfaf b83d 018a c63e 3b1f 773e 9d7a d93b
00000230: 55a1 d9be 303a 66be 90a9 0ebf 657f 8fbe
00000240: 0760 0fbd 6424 1b3c 81cf 6dbe 9f4c e23e
00000250: fc14 07bf 7bfc 81bb a70f 923b 7777 b7bc
00000260: fae8 0dbd 4d04 803d 6d53 2f3e 9eeb 08be
00000270: baee 3a3e cee9 b1be 7938 1f3c 2bd7 1ebd
00000280: aae3 fe3c fe05 c7bc f6be dc3c 3b36 adbd
00000290: ac5c cdbd 2457 cdbe 402d 463e 4420 cebe
000002a0: 7d9a 00be 1a29 e9bd e230 90bd 2b14 793e
000002b0: 23f4 8a3c 8b7d 8f3c e133 e3bd bdae 19bf
000002c0: 7f48 80be 844b 19be f190 debd b411 dbbd
000002d0: 6685 153d 7ba7 89bd ae7b 2cbe 7aef 643e
000002e0: f884 643f 5906 813e 5405 efbb cf27 10bd
000002f0: ea33 b0bc 7843 58bd ee5a 8fbe 6500 81bc
00000300: c8d5 25be ad8b 3e3f 84d3 e43d 2b98 c8be
00000310: 34a2 96be 76ff 79be aa29 bc3d ef9e 24be
00000320: 8350 f33d 0350 ae3d a7e8 d3bd c409 a1bb
00000330: ea55 3d3c b5ad f5bd 0391 a43d 2009 99be
00000340: f472 053e 76dd dabc 35c9 643f 1dac 9fbf
00000350: d44c db3e 4ebc 443d 7be9 b93e 04a0 9a3d
00000360: d550 8b3c a112 b0bc ae91 063d 5cd9 973d
00000370: 4a0c 813d 381f 7f3d f8ea 253c 519f aa3d
00000380: 7692 873d 4c55 923c e349 123d 34f0 fc3b
00000390: 247b 003d bf9e fa3c 159a 6a3d 0490 8db9
000003a0: dc1a 513c abe0 4fbc d484 ad3d 8c68 693d
000003b0: 7484 183d 4601 e0bc b847 1b3b 104e 203d
000003c0: e697 9ebc 7502 e9bc ff71 203d abdc cbbc
000003d0: 5fb3 cfbc ed61 463d 1cc4 c7bb 59a6 813c
000003e0: 3654 043d a7c7 56bc 0d4b d6bc eb74 cfbc
000003f0: 25c7 8d3c c032 ce3a 8bf1 1b3d aebf a13d
0.14694974 -0.116343684 -0.2529455 0.24556746 0.34090796 -0.18348883 0.1281218 0.0030839373
-0.15382926 0.27342695 0.059762497 -0.22116 0.09280505 0.17888811 -0.26593474 0.12805657
-0.0026875057 0.07488117 0.20096332 -0.1540574 -0.01933084 -0.25036365 -0.55897105 -0.25813162
-0.24901703 0.2360342 0.32141325 -0.068454325 -0.01920046 -0.023032509 -0.0867195 0.5536284
0.22461697 0.27196833 0.39948922 -0.0100796735 0.12108958 -0.05094006 0.17172553 0.26563293
-0.8437324 -0.28050825 -0.10337919 -0.23101321 0.029886052 -0.084342144 -0.04488165 -0.0608256
-0.28220928 -0.30783796 0.15323424 -0.0517235 0.087813415 0.06673993 0.18767872 0.049325593
0.039476015 0.12046582 -0.1554635 -0.28286183 0.082612455 0.17412387 -0.031640116 -0.049767364
-0.060716324 -0.5043615 0.117713846 0.8276403 0.25623566 -4.6033507e-05 -0.272242 0.104270935
-0.097828865 -0.21807408 -0.014360714 0.24557437 0.2004975 0.18553565 0.03712807 0.06555698
-0.08300882 -0.13787803 -0.22777607 0.20406097 -0.11198094 0.23447262 -0.28237435 0.026089553
0.1474448 -0.24300309 -0.3117573 -0.046518072 0.07542489 -0.02317092 -0.5151063 -0.22986339
-0.042022515 0.23606588 -0.039965186 0.025948333 -0.5625768 -0.4783296 0.3324546 0.09720701
-0.07463181 0.094187 0.3316463 0.47172263 -0.16819991 0.54868263 -0.046288047 -0.42365935
1.0769461 0.9652241 -0.07738226 -0.10752858 0.048475787 0.16198236 -0.27349386 -0.23812
0.20545146 -0.38874164 -0.25034904 0.09151159 0.47436437 0.17115301 -0.3192308 -0.097357765
-0.055675752 -0.07092388 -0.17641759 0.1906314 0.02322036 0.20709983 0.21609718 0.23658948
0.09017896 0.38777164 0.24133007 0.006636931 -0.425059 -0.22483134 -0.5572748 -0.28026882
-0.03500369 0.009469125 -0.23223688 0.44199082 -0.52766395 -0.0039668656 0.0044574323 -0.022395832
-0.034646012 0.0625082 0.17121668 -0.13371131 0.1825513 -0.3474869 0.009718054 -0.03877942
0.031114418 -0.02429485 0.026946526 -0.08457609 -0.100274414 -0.40105546 0.19353199 -0.40258992
-0.12558933 -0.113847926 -0.07040574 0.243241 0.016962117 0.017515918 -0.110938795 -0.60032254
-0.2505531 -0.14970213 -0.10867489 -0.10696736 0.03650417 -0.067213975 -0.16844055 0.22356978
0.89265394 0.25200155 -0.0072943363 -0.035194214 -0.02150913 -0.05279872 -0.2799906 -0.015747258
-0.16194832 0.7443188 0.11173156 -0.39178595 -0.29420626 -0.24413857 0.09187634 -0.16076253
0.11880591 0.08511355 -0.10347109 -0.004914494 0.011556128 -0.119960226 0.08035471 -0.29889774
0.13032132 -0.026716929 0.8936952 -1.24744 0.42832053 0.048031144 0.36310944 0.07550052
0.017006317 -0.021493258 0.032853775 0.07414505 0.06301172 0.062285632 0.010126822 0.083311684
0.06619732 0.017862938 0.035714995 0.007719064 0.031367436 0.030593274 0.05727585 -0.00027000916
0.012762751 -0.012687842 0.084726006 0.05698447 0.037235692 -0.027344357 0.002369387 0.039136946
-0.01935954 -0.028443554 0.039171215 -0.024885496 -0.025354085 0.048433233 -0.006096376 0.015826391
0.032306872 -0.013109124 -0.026158834 -0.025324306 0.017306874 0.0015731677 0.03807215 0.07897888

block1.2.branch5_conv.weight f4 [2, 2, 5, 5]
00000000: 21c9 febc 7c03 d73d 7712 dd3d eedc df3d
00000010: dc15 db3d 41da 983e 035c 2abe 8be4 fabe
00000020: edf2 f6bc 81af d23e 4e0f c63e b060 9cbe
00000030: d004 73bf d69d eebe 7e51 a23e 8e55 c03e
00000040: 8d65 6c3e 029b f0be 4d4b cebe 00a8 c1bc
00000050: c457 953d e1d3 293e bac3 17be b72f 80be
00000060: 9cd4 65bc 3ba2 bf3a 4ea9 54bc 5e0a d2be
00000070: 0613 52bd 8ac7 7bbc 6f80 4bbe 7cd1 3fbd
00000080: 358e 433e 8a9e 3e3e f2b8 3e3b 187b e9bd
00000090: de9d 433e 27cf 933f 7ae1 183f 0116 5ebe
000000a0: 0831 3cbe 0587 6d3e 7be9 c6bb 192b be3d
000000b0: 4b33 b9be 0b51 213d 87b7 2dbd 6601 46be
000000c0: 136b 343d 027d 4ebe a284 82bc 0a34 e139
000000d0: 988e 103d d9c7 44bc a84d 553c 968d 0e3c
000000e0: bf48 503c 4f07 543c ebf5 a7ba ed42 683c
000000f0: 0d1f 3bbd 938f 83b9 5111 823b 19bc d4bc
00000100: 8ccb f53b 610d a1bb a81b 573b 4781 393c
00000110: d823 87bc 8b5a a63c c8b4 babc 3ddd 27bc
00000120: 97de 88bc 9c46 51bc 4a34 06bd 3af8 a63c
00000130: d91f 123d 321a 533d 1501 9c3c 7abb 3d3c
00000140: 34de 2cbb bc84 7cbc 3868 753c b342 1e3c
00000150: 2eb6 ec3c 93cf 22bc 0d70 523a 4366 c3bb
00000160: 79ac 623c e0a8 0fbc 59e0 23bd 4eec 63bc
00000170: 9546 03bd ae7d debb f609 29bc 9e05 eebc
00000180: bad5 b73c a3b8 9bb9 d137 a93c 186e 943a
-0.031101765 0.104987115 0.107945375 0.10930811 0.10697529 0.29854015 -0.16636662 -0.4900249
-0.030145133 0.41149524 0.38683552 -0.30542517 -0.9492922 -0.46604794 0.317028 0.37565273
0.23085614 -0.46993262 -0.40291825 -0.023639679 0.072921306 0.16584732 -0.14820758 -0.25036404
-0.014027741 0.0014620492 -0.0129798185 -0.41023535 -0.051287673 -0.015367398 -0.19873212 -0.04683064
0.19097216 0.18615165 0.0029101935 -0.114004314 0.1910319 1.1547593 0.5971905 -0.21688081
-0.18378079 0.23196037 -0.0060703135 0.09285564 -0.36171946 0.03938393 -0.042411353 -0.19336471
0.044047426 -0.20164874 -0.015932385 0.00042954116 0.035292238 -0.012010538 0.013019003 0.008700749
0.0127126565 0.012941196 -0.0012814378 0.014176113 -0.04568391 -0.00025093238 0.0039693494 -0.025968598
0.0075010713 -0.004914925 0.003282288 0.011322326 -0.016496584 0.020306846 -0.022791281 -0.010245618
-0.016707702 -0.012773182 -0.03276471 0.020382036 0.035674904 0.051538654 0.019043485 0.011580342
-0.002637756 -0.015412506 0.014978461 0.009659457 0.028895464 -0.009937185 0.0008027561 -0.0059631183
0.013835066 -0.00876829 -0.040008876 -0.01391132 -0.032049734 -0.0067898845 -0.010317316 -0.029055413
0.02244078 -0.0002970147 0.020656498 0.0011324314

block1.2.maxpool_conv.weight f4 [2, 16, 1, 1]
00000000: 4b83 32bd bdf2 02bf 3824 46be ad0a c8be
00000010: df07 f43d 5bde 8f3e a971 4dbd e688 e9bd
00000020: 3626 b13d 93ff 643e 7a37 d33e 60b9 83be
00000030: 2283 13be 71e9 45bd 0546 5f3d 4836 db3e
00000040: dfdf 15be a5e6 cf3e dd25 603d d50e 7a3e
00000050: 3d5d 10bc 7af7 113f 990d acbe c50b 333d
00000060: 6bfc dcbe a241 82bd ddd9 213f 4cba 263d
00000070: 7c45 11be 04ea 15bb 30b0 2dbf 40a4 ff3d
-0.043582242 -0.5115164 -0.19349754 -0.39070645 0.11915564 0.2809933 -0.050157223 -0.114030644
0.08649866 0.22363119 0.41253263 -0.25727367 -0.14405492 -0.04831833 0.054510135 0.4281485
-0.14636181 0.40605655 0.05472361 0.2441972 -0.008811292 0.57018244 -0.33604124 0.043712396
-0.4316133 -0.06360175 0.6322306 0.04070501 -0.14186662 -0.002287508 -0.67846966 0.124825

block1.2.bn1.weight f4 [4]
00000000: 1ca4 7b3f 5d6b 153c 67fe 533f e00d 573f
0.98297286 0.009119836 0.8281006 0.84005547

block1.2.bn1.bias f4 [4]
00000000: 4116 ee3f 992e 7ebd a498 0940 7787 b73f
1.8600541 -0.062056158 2.1499414 1.4338216

block1.2.bn1.running_mean f4 [4]
00000000: 3b10 96c0 dc6e 14be 3fb6 9bc0 bb34 823e
-4.6894813 -0.14495414 -4.865997 0.25430855

block1.2.bn1.running_var f4 [4]
00000000: b057 ab40 396f a13b 8fa9 7740 63ae 7240
5.354454 0.004926589 3.869724 3.7918937

block1.2.bn3_1.weight f4 [8]
00000000: 4f64 5a3f da5e 523f a4a7 1e3f 3d38 343f
00000010: 4b77 313f 0aec 263f 5ed1 293f bbf1 313f
0.8530931 0.8217598 0.6197455 0.7039831 0.6932265 0.6520392 0.66335094 0.69509476
